assets/tflite/converted_model.tflite (tflite, 742672 bytes, 16 tensors)

sequential_5/conv2d_6/Relu;sequential_5/conv2d_6/BiasAdd;sequential_5/conv2d_6/Conv2D;sequential_5/conv2d_6/BiasAdd/ReadVariableOp f4 [32, 3, 3, 3]
0	0x399194ef	0.0002776752
1	0xb6865bc1	-4.0041928e-06
2	0x3963afe0	0.00021713926
3	0x39201d72	0.00015269758
4	0x391e56ab	0.0001510034
5	0xba0d68a6	-0.0005394317
6	0x39b38f6e	0.00034248404
7	0x393ce6ec	0.00018015102
8	0x390b0f69	0.00013261814
9	0xb9e806b0	-0.0004425547
10	0x396511b4	0.00021845737
11	0xba24bc07	-0.0006284122
12	0x3a26e0eb	0.0006365913
13	0x399ea98d	0.00030262434
14	0x386829b6	5.5351957e-05
15	0x3a150445	0.0005684535
16	0xb89bbaf6	-7.4258e-05
17	0x381ff31e	3.8134975e-05
18	0xba03356c	-0.0005005214
19	0xba113704	-0.0005539509
20	0xba1f8355	-0.00060849387
21	0x39c1ffe8	0.00037002494
22	0xb98ce66c	-0.00026874559
23	0xb8589929	-5.1641055e-05
24	0x371d9d3d	9.394539e-06
25	0xba0134c5	-0.0004928823
26	0x3736cca2	1.089569e-05
27	0xb8e42eb7	-0.000108805885
28	0xb8f934be	-0.00011883069
29	0xba28294a	-0.0006414844
30	0xb9ed0793	-0.00045209806
31	0x395aff43	0.00020885192
32	0x387811a7	5.9144248e-05
33	0xb98a1dcf	-0.0002634362
34	0xb9d9c486	-0.00041535887
35	0x38a46227	7.838412e-05
36	0x396e79b4	0.00022742787
37	0x3a2d66dd	0.0006614754
38	0x39aed38c	0.0003334548
39	0xb97b3d17	-0.00023959983
40	0xb942e1cb	-0.00018585396
41	0x39749974	0.00023326819
42	0xb9ccd9f4	-0.000390723
43	0xb8a2d349	-7.764117e-05
44	0xb9545647	-0.00020250036
45	0xb9ad3c2d	-0.00033041966
46	0xb9c9e5a7	-0.00038508812
47	0xb9ec0589	-0.00045017552
48	0x394ea41f	0.00019706831
49	0xb8807227	-6.124778e-05
50	0xb80d03da	-3.3620607e-05
51	0xb881fd0a	-6.1983315e-05
52	0x39066df1	0.00012820192
53	0x375ba5b0	1.3091994e-05
54	0xb8ce073c	-9.824193e-05
55	0xb8ed0844	-0.0001130258
56	0xba436154	-0.00074531627
57	0x39b19df7	0.00033877764
58	0x39724339	0.00023103961
59	0xba357a5c	-0.0006922835
60	0x3a156f06	0.00057004427
61	0x39b5407e	0.0003457106
62	0x3940bdd3	0.00018381262
63	0x38c74c94	9.503323e-05
64	0xb9aae542	-0.00032595737
65	0xba40ce34	-0.00073549454
66	0xb8c438ac	-9.356564e-05
67	0x3990155d	0.00027481737
68	0xba0d8f2c	-0.00054000574
69	0x36b3b100	5.355221e-06
70	0x39e53c5b	0.00043723252
71	0x37c965fe	2.4008561e-05
72	0xb9a3b956	-0.0003122787
73	0xb8dc13c2	-0.00010494098
74	0x39a738ad	0.0003189495
75	0x3a0c150c	0.00053437124
76	0x39faa75b	0.00047808405
77	0xb9e71b10	-0.00044079917
78	0x38ddc648	0.00010575034
79	0xb9f50336	-0.00046732434
80	0xb991c2ad	-0.000278016
81	0xb933db52	-0.00017152473
82	0x3a1bfd08	0.00059504854
83	0x39fd01bb	0.0004825721
84	0x384b4b8b	4.8469326e-05
85	0xb95cca43	-0.00021056183
86	0xb63759f3	-2.7321482e-06
87	0xb8f5899c	-0.00011708142
88	0x39aaaf85	0.000325557
89	0x39e7e9a0	0.00044233818
90	0xb9cae369	-0.00038697876
91	0xb9d55e8f	-0.00040696978
92	0xb9e52a49	-0.0004370979
93	0x39a48072	0.00031376217
94	0x38218d71	3.851712e-05
95	0xb9f1e660	-0.00046138745
96	0x379d0f65	1.8723027e-05
97	0x37e9404b	2.7805703e-05
98	0xba09bf39	-0.00052546297
99	0x38e153b8	0.0001074443
100	0xb98da374	-0.00027015398
101	0xba267103	-0.00063492375
102	0x394e8204	0.00019694126
103	0xb84d64ab	-4.8969563e-05
104	0xba4b2fac	-0.0007750939
105	0xba02cc33	-0.00049895345
106	0x39239942	0.00015601984
107	0xb8712ea4	-5.7502315e-05
108	0xb8dbb0ff	-0.00010475702
109	0xb97d9df2	-0.000241868
110	0xb956358c	-0.00020428578
111	0xba0fe052	-0.00054884434
112	0x37c146fd	2.304045e-05
113	0x394e9cab	0.00019704054
114	0xb9cd4013	-0.00039148386
115	0x39432522	0.00018610482
116	0xb896cf83	-7.1912094e-05
117	0xba1c16c8	-0.00059543224
118	0xb7c67db5	-2.3661976e-05
119	0xb93e8c0f	-0.00018171988
120	0xb7acb4fb	-2.0588273e-05
121	0x39a35576	0.00031153456
122	0xb903e05c	-0.00012576714
123	0x3a14cbd0	0.00056761224
124	0xb9957eed	-0.00028514062
125	0xb9d05bad	-0.00039741155
126	0x3926f64b	0.00015922745
127	0x382ea922	4.164235e-05
128	0x39c9acf2	0.00038466562
129	0xb8a5336b	-7.8773905e-05
130	0xb9a333e5	-0.00031128447
131	0xb703c8f6	-7.854998e-06
132	0x3a1f7935	0.000608343
133	0x39f9ea44	0.00047667522
134	0x39f4a35c	0.0004666102
135	0xb9c2df48	-0.0003716892
136	0xb9177b81	-0.00014446491
137	0x398cf7b1	0.00026887425
138	0x39f8b214	0.00047434925
139	0xb9cd9586	-0.0003921205
140	0xba22f5f8	-0.0006216462
141	0x3981272e	0.00024633989
142	0xb9eddf35	-0.00045370465
143	0xb9a8e0de	-0.00032210996
144	0x398756e4	0.00025813945
145	0x3958b4a7	0.00020666663
146	0x3926e226	0.0001591524
147	0x39b10aa0	0.00033767987
148	0x370da98a	8.443729e-06
149	0x37249135	9.80897e-06
150	0xba0126bc	-0.00049267313
151	0xb8f3322d	-0.00011596489
152	0x39a7bcff	0.00031993535
153	0x391452b0	0.00014145183
154	0xb94e38cf	-0.00019666854
155	0x3936b584	0.00017424492
156	0x39c65f0e	0.00037836324
157	0x3945017b	0.00018787936
158	0x38959899	7.133297e-05
159	0x3993dfe7	0.00028204845
160	0x398cdfbd	0.0002686958
161	0x39bd52dc	0.00036110624
162	0x3998ceca	0.0002914577
163	0x39806553	0.00024489555
164	0xb9e15893	-0.00042981337
165	0x34af856a	3.2693362e-07
166	0xba01b257	-0.0004947534
167	0xb994ad66	-0.00028357952
168	0xb96f1de5	-0.00022803953
169	0xb953e162	-0.0002020649
170	0x39c2afbb	0.00037133493
171	0x39acab52	0.0003293404
172	0xb9860722	-0.00025563786
173	0x397d383c	0.00024148909
174	0xb73ce635	-1.12592725e-05
175	0x3985f262	0.00025548326
176	0x38d7de13	0.000102933634
177	0xb8ecfb48	-0.00011300162
178	0x3946d578	0.00018962275
179	0x38da2604	0.00010402131
180	0xba327470	-0.00068075117
181	0xb8802223	-6.109874e-05
182	0x39592433	0.00020708218
183	0xb90222bc	-0.00012410706
184	0xb91301df	-0.0001401971
185	0xb9ef3d0c	-0.00045631116
186	0xb991f9fb	-0.00027842805
187	0x39b9dace	0.00035448972
188	0x39697cae	0.00022267058
189	0x3a035194	0.00050094095
190	0x398b1f5e	0.00026535516
191	0x3a354c9f	0.00069160195
192	0xb97f10b1	-0.00024324913
193	0xb978dfdf	-0.00023734522
194	0x3a109702	0.0005515666
195	0xba025103	-0.0004971178
196	0xb9a3448a	-0.00031140848
197	0x3a0785ca	0.00051697774
198	0xba051fa0	-0.000507826
199	0xb9d68358	-0.0004091512
200	0x3a09e82d	0.0005260732
201	0xb90fb4a3	-0.00013704835
202	0xb8b1decf	-8.481519e-05
203	0xb7ee5ec6	-2.8415943e-05
204	0x398db1a0	0.00027025957
205	0x3a19d482	0.0005868153
206	0x37353541	1.080084e-05
207	0xba23bb5f	-0.0006245877
208	0xba1b2768	-0.0005918653
209	0x37ccb0cc	2.4401023e-05
210	0xb9aa2f5a	-0.00032460206
211	0xb91abd87	-0.00014757189
212	0xb9aa6035	-0.00032496607
213	0x391659af	0.00014338524
214	0xb9dcc7bd	-0.00042110487
215	0x3a134499	0.0005617827
216	0x3a01b7b1	0.00049483316
217	0xb919b23a	-0.00014657612
218	0xba00cb5b	-0.0004913115
219	0xb99ab92b	-0.0002951113
220	0xb9ee1c8d	-0.0004541617
221	0xba4b835d	-0.000776341
222	0xb9a87e2c	-0.00032137462
223	0xb907ca4b	-0.00012949963
224	0xba6e482b	-0.00090897334
225	0xb9e7c737	-0.0004420818
226	0x39fb02d8	0.0004787657
227	0xba460ede	-0.0007555316
228	0x39b62877	0.00034743894
229	0x397c2d5a	0.00024049488
230	0xba5bb4df	-0.0008381139
231	0xb9af71ff	-0.00033463535
232	0xb9e08d3f	-0.00042829846
233	0xb957c504	-0.00020577392
234	0x39bfaf35	0.00036560898
235	0xb9d2170a	-0.00040071487
236	0xb93ed7e3	-0.00018200236
237	0xb9a5b93a	-0.00031609257
238	0x3a0746a8	0.000516037
239	0x394c6b7d	0.00019494999
240	0x39418332	0.00018454788
241	0x39e90313	0.00044443514
242	0x39bd7473	0.0003613565
243	0xb9d65bf2	-0.00040885765
244	0x3923c317	0.00015617568
245	0x3991ba0e	0.00027795177
246	0xb9d05b51	-0.00039740888
247	0x386a052e	5.579477e-05
248	0xba0b25b5	-0.0005308048
249	0x394ca07a	0.00019514738
250	0x3917a7d6	0.00014463006
251	0xb9ea8931	-0.00044734174
252	0x3881fa03	6.197768e-05
253	0x396f4bb1	0.00022821013
254	0x3a0e21e6	0.00054219214
255	0xb9c5f6a2	-0.00037758524

sequential_5/conv2d_6/BiasAdd/ReadVariableOp f4 [32]
0	0x3b108bc5	0.0022055965
1	0xbd17e665	-0.037084956
2	0xbc8ea1fe	-0.017411228
3	0x3d20fcdb	0.03930364
4	0x3bd74166	0.0065690754
5	0xbd0cc238	-0.03436491
6	0xbce2b041	-0.027671935
7	0xbc4760dc	-0.012169089
8	0x3d8ba1ea	0.06817992
9	0xbc98807d	-0.018615955
10	0xbce5b5cf	-0.028040795
11	0x3b966ed8	0.0045908503
12	0x3bc11693	0.0058925836
13	0xbd0ccd8a	-0.034375705
14	0x3d23dfb6	0.04000827
15	0xba6d6b92	-0.0009056862
16	0xbd5aadaf	-0.053388294
17	0x3ce032e0	0.02736801
18	0x3d27bba0	0.040950418
19	0xbb835109	-0.004007463
20	0xbc1cb074	-0.009563554
21	0xbbf6d2ea	-0.007532467
22	0xbcd8b1da	-0.026451994
23	0xbc62638a	-0.013817677
24	0xbc8f63fa	-0.017503727
25	0x3d3a71e7	0.045518782
26	0x3bc4fcc8	0.006011579
27	0x3c52a35a	0.012856329
28	0xbc7c334c	-0.0153930895
29	0xbcb23350	-0.021752983
30	0x3b286b51	0.0025698731
31	0xbcf97daf	-0.030455438

sequential_5/conv2d_7/BiasAdd/ReadVariableOp f4 [64]
0	0x3cc24df6	0.023718815
1	0x3d448740	0.047980547
2	0xbc46a0e0	-0.0121233165
3	0xbcdbbeee	-0.02682444
4	0x3c1a2760	0.009408802
5	0xbd312baf	-0.04325455
6	0xbcbf62ea	-0.023362596
7	0xbc95fe13	-0.018309629
8	0x3cd371cc	0.025811099
9	0xbce20f8e	-0.027595308
10	0xbcdc4083	-0.02688623
11	0xbd12e7d9	-0.03586564
12	0xbd246250	-0.04013282
13	0xbbb7d194	-0.0056097005
14	0x3c8eaa10	0.017415076
15	0xbd9f5660	-0.077801466
16	0xbce84408	-0.028352752
17	0xbc796360	-0.015221447
18	0xbc197b0b	-0.009367715
19	0xbb508f86	-0.0031823828
20	0xbcb246c6	-0.021762263
21	0x3bb8addb	0.0056359596
22	0xbc602b67	-0.013682223
23	0xbce20c65	-0.0275938
24	0xbc72a2b1	-0.0148092965
25	0xbc83762c	-0.01604756
26	0xbd2a0ad6	-0.04151424
27	0xbc680c7b	-0.014163132
28	0xbc9d680e	-0.019214656
29	0xbc814a00	-0.015782356
30	0xbacbae4d	-0.0015539617
31	0xbd67e8da	-0.05661855
32	0xbcec3063	-0.028831666
33	0xbd18c802	-0.037300117
34	0xbcc28be3	-0.023748344
35	0x3c937db5	0.018004278
36	0xbd33080d	-0.04370885
37	0xbc6198f1	-0.013769374
38	0xbcb8c96f	-0.022556989
39	0xbc7aff16	-0.015319606
40	0xbba5ef77	-0.005063947
41	0xbd1bb59f	-0.038015004
42	0xbb6b4bee	-0.0035903412
43	0x3c5f8eb5	0.013644864
44	0xbc8870c2	-0.01665533
45	0xbd025ab5	-0.031824786
46	0xbca816c3	-0.020518666
47	0xbd3f8c59	-0.046764705
48	0xbc794430	-0.015214011
49	0xbd0324dc	-0.032017574
50	0xbc516009	-0.012779244
51	0x3bf7fddc	0.007568104
52	0x3a14a7ce	0.0005670757
53	0xbd614223	-0.054994714
54	0xbcf029c1	-0.029316785
55	0xbbabeec5	-0.0052469694
56	0xbcf9d021	-0.030494751
57	0x3d3ef4c1	0.046620134
58	0x3d1ba847	0.03800228
59	0xbcca6f18	-0.024711177
60	0xbad38429	-0.0016137409
61	0xbcad2543	-0.021135932
62	0xbcbbb779	-0.022914635
63	0xbd1547e5	-0.036445517

sequential_5/conv2d_8/BiasAdd/ReadVariableOp f4 [64]
0	0xbd136b5f	-0.03599107
1	0xbcad9dea	-0.021193463
2	0xbd19e6c4	-0.03757359
3	0xbcaac308	-0.020844951
4	0xbd49b17f	-0.04924154
5	0xbc95522f	-0.018227665
6	0xbccf90a8	-0.025337532
7	0xbc00b84a	-0.007856438
8	0xbc5c24aa	-0.013436476
9	0xbced5f32	-0.028976057
10	0xbd413ad7	-0.047175255
11	0xbd45baef	-0.048273977
12	0xbcd2cdd4	-0.025732912
13	0xbcd5c6d9	-0.026095795
14	0x395ed65b	0.00021251423
15	0x3d04926c	0.0323662
16	0xbcc815ae	-0.0244244
17	0xbc5f14a0	-0.013615757
18	0xbd11bd1a	-0.035580732
19	0xbd63046b	-0.055424135
20	0x3d064712	0.03278262
21	0xbc8f6d75	-0.017508248
22	0xbc4cbbf4	-0.012495983
23	0x3c562042	0.013069214
24	0x3a9225c3	0.001115017
25	0xbcc6c81e	-0.024265345
26	0xbd114260	-0.03546369
27	0xbc9b033c	-0.01892244
28	0xbd332547	-0.043736722
29	0x3beb30bb	0.00717744
30	0x3b0d600d	0.0021572143
31	0x3cca92e2	0.024728242
32	0xbd358fee	-0.044326715
33	0xbd46fb8d	-0.04857974
34	0xbcee1b8f	-0.029065875
35	0xbd8c1727	-0.068403535
36	0xbcb94433	-0.022615528
37	0x3d17f367	0.03709736
38	0x3ba5718e	0.005048937
39	0xbcb4e2c6	-0.02208079
40	0xbd9c9e2d	-0.07647357
41	0xbd0c2f40	-0.03422475
42	0x3d162cab	0.036663692
43	0x3c343f6a	0.011001447
44	0x3d093208	0.03349498
45	0x3bcad448	0.0061898567
46	0xb9c5f783	-0.0003775918
47	0x3cad6f6d	0.021171296
48	0xbd73722f	-0.059435066
49	0x3c86d04c	0.016456746
50	0x3bf54382	0.007484854
51	0xbd50cfb8	-0.050979346
52	0xbc82a3e4	-0.01594729
53	0xbd3cff0c	-0.04614167
54	0xbccb3584	-0.024805792
55	0xbcb7010e	-0.02233937
56	0x3d0a33f5	0.033740956
57	0xbc9abc41	-0.018888595
58	0x3c725c74	0.01479255
59	0xbcde127a	-0.02710842
60	0xbc614c8c	-0.01375116
61	0xbb037ea9	-0.002006451
62	0xbd051de9	-0.032499228
63	0x3dd448ba	0.10365434

sequential_5/conv2d_9/BiasAdd/ReadVariableOp f4 [64]
0	0xbd4ca9df	-0.04996669
1	0x3a458326	0.0007534496
2	0x3bd636a9	0.0065372777
3	0xbce672d7	-0.028130932
4	0xbc72aca3	-0.014811668
5	0xbcf9a96c	-0.030476294
6	0x3d7c4e77	0.061598267
7	0x3c075fbc	0.008262571
8	0x3d6457f8	0.055747956
9	0xbc881529	-0.016611652
10	0xbd319f47	-0.04336479
11	0x3b12d24a	0.0022403174
12	0xbd32d8b4	-0.043663695
13	0xbca326b7	-0.019915922
14	0x3da2f8cf	0.07957613
15	0xbc0803d3	-0.008301693
16	0xbd2c6a3b	-0.042093497
17	0x3cced54a	0.025248189
18	0xbd2cc734	-0.042182162
19	0x3c48d0e5	0.012256836
20	0x3d2becbc	0.041973814
21	0x3dc5b56b	0.09653743
22	0xbca2bcac	-0.019865356
23	0x3bd2ce0a	0.006433253
24	0xbd404e6d	-0.046949793
25	0xbc68664c	-0.014184546
26	0x3d3f42c2	0.046694525
27	0xbd1de0d9	-0.03854451
28	0xbc4d575e	-0.012533037
29	0xbc737d04	-0.014861349
30	0xbd69496e	-0.056954794
31	0xbd515b1f	-0.05111229
32	0xbcd0bffc	-0.02548217
33	0xbd70b036	-0.058761798
34	0xbd3287f1	-0.043586675
35	0xbcbfe0c6	-0.02342261
36	0xbc9a45f4	-0.018832184
37	0xbc498dde	-0.01230189
38	0xbc32dde9	-0.010917165
39	0xbd24087b	-0.04004715
40	0xbd2ae117	-0.04171857
41	0xbcb0d5ba	-0.021586288
42	0x3c96c5df	0.0184049
43	0xbd420e72	-0.047377057
44	0x3c890f8f	0.016731052
45	0xbc1b0d8c	-0.009463679
46	0xbceace75	-0.0286629
47	0x3c5852a4	0.013203297
48	0x3c6ab31c	0.01432493
49	0xbc14257f	-0.009042143
50	0x3d3c3352	0.04594738
51	0xbcd7661d	-0.026293809
52	0xbd1be79f	-0.038062688
53	0xbd18221d	-0.037141908
54	0xbc880a7d	-0.016606564
55	0x3d71c2ea	0.059023775
56	0xbbd9d4b7	-0.006647672
57	0x3dac5c93	0.08416095
58	0xbced3e10	-0.028960258
59	0xbccbebfb	-0.024892798
60	0xbcf8167f	-0.030284164
61	0x3cbadd1e	0.022810515
62	0xbc5caf47	-0.013469524
63	0xbd627ec8	-0.05529669

sequential_5/conv2d_10/BiasAdd/ReadVariableOp f4 [64]
0	0xbc00d8e1	-0.007864208
1	0xbbea225d	-0.0071452097
2	0xbc4ac8f6	-0.012377014
3	0xbc6a1b2d	-0.014288706
4	0xbd025bdd	-0.03182589
5	0x3d4d2dbc	0.050092444
6	0xbcd4a8bd	-0.025959367
7	0xbccaa858	-0.024738476
8	0x3d79683e	0.06089043
9	0xbd0bed09	-0.0341616
10	0x3cf2994e	0.029614117
11	0xba759a30	-0.0009368984
12	0xbc5654e7	-0.013081766
13	0xbd77046a	-0.060306944
14	0xbce25168	-0.027626708
15	0xbcbc0ab3	-0.02295432
16	0x3d961fab	0.07330259
17	0x3d9fe386	0.078070685
18	0x3cc79db4	0.02436719
19	0x3da97220	0.08273721
20	0x3d89d863	0.067307256
21	0xbd5bdbc6	-0.05367639
22	0xbdb0f3c8	-0.086402476
23	0x3d02b5c6	0.031911634
24	0x3d623cbd	0.055233706
25	0x3d923eb6	0.071408674
26	0xbd80fc32	-0.062981024
27	0x3da75ccc	0.081719965
28	0xbdaa8d5d	-0.08327744
29	0xbd2f66d8	-0.04282269
30	0x3c0a8ed5	0.008456905
31	0xbc9459f5	-0.018109301
32	0xbca93f63	-0.020660108
33	0x3cdddb5d	0.02708214
34	0x3d4ddef6	0.05026146
35	0x3beab4f6	0.0071626855
36	0xbba14789	-0.0049218577
37	0x3d89202b	0.06695589
38	0xbd09d729	-0.03365246
39	0x3bd08165	0.0063630813
40	0xbcbf3463	-0.02334041
41	0xbcb91272	-0.022591803
42	0x3d407b10	0.04699236
43	0x3d6128c4	0.054970518
44	0x3d485b65	0.048915286
45	0xbbfd3600	-0.0077273846
46	0xbd733048	-0.059372216
47	0x3d36bc04	0.0446129
48	0xbda01ae8	-0.07817632
49	0xbcd9f0e5	-0.026604125
50	0x3c9cc5f0	0.019137353
51	0xbcb47846	-0.022030007
52	0xbc9437cb	-0.01809301
53	0x3d6e1dbd	0.05813383
54	0x3c868a78	0.016423449
55	0xbc21e728	-0.009881772
56	0xbcdcdc45	-0.026960501
57	0xbc25f0e3	-0.010128233
58	0xbc6d7186	-0.014492398
59	0x3d99b8ec	0.07505974
60	0xbd635a1c	-0.055505857
61	0xbc78e16e	-0.015190465
62	0xbc95d972	-0.018292163
63	0x3c7fb7ab	0.015607755

sequential_5/conv2d_11/BiasAdd/ReadVariableOp f4 [64]
0	0x3c59b7e6	0.013288474
1	0x3c1ec30e	0.009690059
2	0xbc901a26	-0.017590594
3	0xbc929740	-0.017894387
4	0xbaf01074	-0.001831545
5	0x3c26f994	0.01019134
6	0xbdc31611	-0.09525693
7	0xbc487a3a	-0.012236172
8	0xbc4051e7	-0.011738277
9	0x3c5fdaf3	0.013663041
10	0x3da2eed1	0.07955707
11	0xbd9dcdb5	-0.07705251
12	0xbb92adfe	-0.004476308
13	0x3dbbc983	0.09169295
14	0xbd91e98b	-0.07124623
15	0xbc953dbf	-0.01821792
16	0xbcb7f95b	-0.02245777
17	0x3dc8b1f0	0.09799564
18	0x3d830a84	0.0639849
19	0x3ca8b36e	0.020593371
20	0xbc22a991	-0.009928123
21	0x3c9e58a7	0.019329382
22	0x3c03ed65	0.008052205
23	0xbd2c6763	-0.042090785
24	0xbc017cfc	-0.007903334
25	0xbc8780f9	-0.016540991
26	0x3d52e8fd	0.051491726
27	0x3d707177	0.05870196
28	0xbd88ddb3	-0.06682911
29	0xbd0501cd	-0.03247242
30	0x3d2f016c	0.042725965
31	0xbc740d63	-0.01489577
32	0x3befd9a7	0.0073196474
33	0xbc530f46	-0.012882059
34	0x3deaea45	0.114704646
35	0xbb56c466	-0.0032770871
36	0xbd8c71e5	-0.06857661
37	0xbbd45932	-0.0064803595
38	0xbbcf58ed	-0.0063277395
39	0xbc4a1937	-0.012335113
40	0xbd9ae8dc	-0.07563946
41	0xbc805c85	-0.015669117
42	0xbcb03456	-0.02150933
43	0x3c165f3d	0.00917798
44	0x3d71cbd5	0.05903228
45	0xbb39d51d	-0.0028355785
46	0x3da69a52	0.08134903
47	0x3d87b5a5	0.06626443
48	0x3c79523a	0.015217358
49	0x3caa79b5	0.020809988
50	0xbba89e7d	-0.0051458464
51	0x3d612573	0.054967355
52	0xbb27d58d	-0.0025609464
53	0xbc2571f9	-0.010097974
54	0x3b93f6b6	0.004515494
55	0xbcfacf1c	-0.030616336
56	0x3c902de9	0.017600017
57	0xbc68bda7	-0.014205373
58	0x3c93fc65	0.018064687
59	0xbd57e532	-0.052708812
60	0xbc8a5f8c	-0.016891263
61	0x3ddac355	0.10681788
62	0xbc94ba51	-0.018155249
63	0xbc245bed	-0.010031682

sequential_5/conv2d_7/Conv2D f4 [64, 3, 3, 32]
0	0xbcade01c	-0.021225028
1	0x3dadf84f	0.08494627
2	0xbdaa3825	-0.0831149
3	0x3d2da751	0.042395893
4	0xbce6faeb	-0.028195819
5	0xbd1f3a84	-0.038874164
6	0x3d14d38c	0.03633456
7	0xbd3530e4	-0.04423608
8	0x3d938adc	0.0720422
9	0x3c467088	0.0121117905
10	0x39568ee0	0.00020461855
11	0x3db08e3f	0.08620881
12	0xbdbc836f	-0.092047565
13	0xb8e17dfb	-0.00010752302
14	0x3dcb5537	0.09928363
15	0xbda3c8c2	-0.07997276
16	0x3b068d57	0.0020531022
17	0xbc3b89d9	-0.01144644
18	0x3d21fe71	0.039549295
19	0x3b90555e	0.004404708
20	0xbd3aef9e	-0.045638673
21	0x3d707b81	0.058711533
22	0xbe05c5e4	-0.1306377
23	0xbdb3a2ca	-0.08771284
24	0x3db940c8	0.09045559
25	0x3e121c0e	0.14268515
26	0x3dd44d2c	0.10366282
27	0xbd253f0d	-0.040343333
28	0xbc270b48	-0.010195561
29	0x3e106a2d	0.14103003
30	0x3dedd032	0.11611976
31	0xbd87c15a	-0.06628676
32	0x3d9e4e0a	0.077297285
33	0xbdc70992	-0.09718622
34	0x3d0ffa1c	0.035150632
35	0x3d9a06fd	0.07520864
36	0xbcc3300d	-0.023826623
37	0xbdaa477d	-0.083144166
38	0x3d495f9e	0.049163453
39	0x3daf559f	0.08561253
40	0x3df46d1a	0.11934872
41	0xbb6a9bc7	-0.0035798417
42	0x3d348690	0.04407364
43	0xbc98420d	-0.018586183
44	0xbc39d15f	-0.011341422
45	0xbd67b7d7	-0.056571808
46	0xbcd30b81	-0.025762321
47	0x3d046181	0.03231955
48	0x3d407dd2	0.04699499
49	0x3daf268b	0.08552273
50	0x3da9fe92	0.083005086
51	0xbcba0f82	-0.022712473
52	0x3e0c2924	0.13687569
53	0x3dc53c3b	0.09630629
54	0xbaa278a2	-0.001239557
55	0xbe16582c	-0.14682072
56	0x3dcaea29	0.09907944
57	0x3dcc45c0	0.09974241
58	0x3dabe932	0.08394088
59	0x3d13d724	0.036093846
60	0xbcbfc0d4	-0.023407377
61	0x3d846211	0.06464017
62	0x3e029934	0.12753755
63	0xbe07485f	-0.13211201
64	0xbd00bcec	-0.03143017
65	0x3ddfbc5b	0.10924598
66	0xbdc66faf	-0.09689271
67	0x3d8ab255	0.067722954
68	0xbdcdcd99	-0.1004898
69	0xbdd6f7c9	-0.1049648
70	0x3d378181	0.04480124
71	0x3e616f38	0.22015083
72	0xbc90ff47	-0.01769985
73	0x3ccaa26e	0.024735656
74	0xbccf7c1f	-0.02532774
75	0x3dfd8dc6	0.12380557
76	0x3da97379	0.08273978
77	0x3c8a1c59	0.01685922
78	0x3dc70450	0.097176194
79	0x3d20f7b6	0.039298736
80	0x3d836570	0.06415832
81	0x3ac2bf48	0.0014858032
82	0x3da25b2c	0.07927546
83	0x3d6ecb9b	0.058299642
84	0xbd7f57ff	-0.06233978
85	0x3bcb009b	0.0061951405
86	0xbdc3ec25	-0.09566525
87	0x3c1bcb77	0.009508959
88	0x3de5894a	0.112078264
89	0x3d55c3d7	0.05218872
90	0x3e3180cf	0.17334293
91	0x3dc3de96	0.09563939
92	0x3d0fbf0c	0.035094306
93	0xbc16694a	-0.009180376
94	0x3d5a3007	0.05326846
95	0xbcc22907	-0.023701204
96	0xbdf1b41d	-0.11801932
97	0xbd5da4eb	-0.054112356
98	0xbdb45131	-0.088045485
99	0x3e075ce3	0.13219027
100	0x3cff9acd	0.031201744
101	0xbd508917	-0.05091199
102	0x3d82a990	0.06379998
103	0xbcf91c59	-0.030409025
104	0x3d83922b	0.06424364
105	0xbd902e78	-0.07040113
106	0xbaf07153	-0.001834432
107	0xbcd5d1aa	-0.026100952
108	0xbdc124ac	-0.09430823
109	0x3d4fe87b	0.05075882
110	0xbd22f588	-0.039784938
111	0xbb504486	-0.0031779124
112	0xbd01e511	-0.031712595
113	0x3dd7e485	0.105416335
114	0x3db559cf	0.0885502
115	0xbd1a8386	-0.037723087
116	0xbd28f6b8	-0.041250914
117	0x3d8df5d3	0.06931653
118	0xbc777ff6	-0.015106192
119	0xbd8f57c2	-0.0699916
120	0x3d1db37c	0.038501248
121	0x3d6dd894	0.058067873
122	0x3df1a278	0.117985666
123	0xbdbd4c1a	-0.09243031
124	0xbda2c76b	-0.07948192
125	0xbd86e2b9	-0.06586213
126	0x3c1f9cae	0.009741945
127	0xbd002c25	-0.0312921
128	0xbe027a08	-0.12741864
129	0xbc096f41	-0.008388341
130	0xbd4a9198	-0.049455255
131	0x3e14354c	0.14473456
132	0xbd9741bd	-0.073855855
133	0xbd639508	-0.05556205
134	0x3b770c52	0.0037696552
135	0xbd8e21d8	-0.06940049
136	0x3d0dfe04	0.034666076
137	0xbd19764d	-0.037466336
138	0xbcadeb20	-0.02123028
139	0x3b95be87	0.004569832
140	0xbd9961e5	-0.07489375
141	0xbca611d2	-0.02027217
142	0x3ddb1805	0.10697941
143	0xbdbf1b41	-0.0933137
144	0x3daceacb	0.08443221
145	0x3d80b9df	0.06285452
146	0x3d9b8b9d	0.075949885
147	0x3bb80101	0.005615354
148	0x3d988cbc	0.07448718
149	0x3cdb6541	0.02678168
150	0xbe0c3cb3	-0.1369503
151	0xbd2f2387	-0.04275849
152	0xbc724b2e	-0.014788432
153	0x3e16cf9d	0.14727636
154	0x3d243fe8	0.04010001
155	0x3dbdcf33	0.09268036
156	0x3cec0c0b	0.028814336
157	0x3caa37f3	0.020778632
158	0x3de7b220	0.113132715
159	0xbe086402	-0.133194
160	0xbd4f1aea	-0.050562777
161	0x3baeff26	0.0053404747
162	0x38ba902b	8.8960245e-05
163	0x3d7843b9	0.06061146
164	0xbe3193d3	-0.17341547
165	0x38c9e293	9.6266296e-05
166	0xbd94d009	-0.07266242
167	0x3e06391f	0.13107727
168	0xbe0cf893	-0.13766699
169	0xbd009f6e	-0.031402044
170	0xbc9202c4	-0.017823584
171	0x3d7ab959	0.061211918
172	0x3da7becb	0.08190688
173	0x3db42693	0.0879642
174	0x3c330fb9	0.010929042
175	0x3d786cba	0.060650565
176	0x3d5ad554	0.0534261
177	0x3d61a33c	0.055087313
178	0x3d44d4b3	0.04805441
179	0xbca1b190	-0.019737989
180	0x3d063362	0.032763846
181	0x3defb0e9	0.11703665
182	0xbd9ce92d	-0.07661662
183	0xbd238335	-0.03992005
184	0xbd05dd7b	-0.032681923
185	0x3c868ab3	0.016423559
186	0x3d324a05	0.04352762
187	0x3db655e3	0.089031
188	0x3c8507a9	0.016239004
189	0x3d37cc50	0.044872582
190	0x3e0488d0	0.12942815
191	0xbdbcfbdd	-0.092277266
192	0xbdd13f65	-0.1021717
193	0x3d9c6c06	0.07637791
194	0x3aa86d59	0.0012849971
195	0x3da7059c	0.08155367
196	0x3cf719f0	0.030163735
197	0xbc79b8da	-0.015241826
198	0x3d6b420b	0.05743603
199	0xbd584adf	-0.052805778
200	0xbd5063e4	-0.050876513
201	0xbd151d16	-0.03640469
202	0xbd3a559a	-0.045491792
203	0xbd2204fe	-0.039555542
204	0xbdb18853	-0.0866858
205	0xbd3b8dc6	-0.045789503
206	0x3dcaa8d6	0.09895484
207	0xbd9a0ba3	-0.07521751
208	0x3db53a67	0.0884903
209	0x3dd33600	0.10313034
210	0x3c48bacd	0.012251568
211	0xbd9cb2e1	-0.07651306
212	0xbc368811	-0.011140839
213	0x3df345a3	0.118785165
214	0xbc4df8ad	-0.012571496
215	0xbc5a2fac	-0.01331703
216	0xbd664f7f	-0.056228157
217	0x3decbd74	0.11559573
218	0xbd55871f	-0.052130815
219	0xbc8b2f46	-0.016990315
220	0xbd030d96	-0.03199538
221	0x3caccfef	0.021095244
222	0xbd2fb17f	-0.042893883
223	0xbd9cb1ce	-0.07651101
224	0xbc219a6e	-0.009863479
225	0xbd044d06	-0.032300018
226	0xbe18df2a	-0.1492888
227	0x3d91cbc5	0.07118944
228	0xbdff11bf	-0.12454557
229	0xbdc3708b	-0.0954295
230	0xbd4fda0e	-0.050745063
231	0xbc8d4121	-0.01724297
232	0xbdca2e52	-0.09872116
233	0xbd8b90fc	-0.06814763
234	0xbcc56696	-0.024096768
235	0xbc90032d	-0.01757964
236	0xbd372863	-0.04471625
237	0x3c2196b6	0.009862592
238	0xbc8311c6	-0.015999686
239	0xbd1448fc	-0.036202416
240	0xbbcb6889	-0.00620753
241	0x3c013f70	0.00788866
242	0x3bd0d3de	0.006372913
243	0xbc06a6eb	-0.008218507
244	0x3c9f7901	0.019466879
245	0x3d64b422	0.05583585
246	0xbdfb4079	-0.122681566
247	0xbd4e7ee9	-0.050414
248	0xbd97afd8	-0.074065864
249	0x3df6c685	0.12049583
250	0x3ca9313e	0.020653363
251	0x3dc88cfa	0.09792514
252	0xbdd876eb	-0.10569557
253	0x3d05a6bf	0.032629725
254	0x3c6ab8a3	0.014326247
255	0xbde97c71	-0.114006884

sequential_5/conv2d_8/Conv2D f4 [64, 3, 3, 64]
0	0x3cbc2b75	0.02296994
1	0x3cb16b1c	0.021657519
2	0x3b7d3daf	0.0038641503
3	0x3d1908f4	0.037362054
4	0x3d1125b0	0.035436332
5	0xbda128a8	-0.07869083
6	0x3c14b4f3	0.009076345
7	0xbc1c0651	-0.00952299
8	0xbbc355b1	-0.005961143
9	0xbd0dff2f	-0.03466719
10	0x3cb90d09	0.022589223
11	0x3d03ea5f	0.032205936
12	0xbd685ee1	-0.05673111
13	0xbdc9e5c0	-0.098582745
14	0xbd4fd978	-0.050744504
15	0xbb666ca0	-0.003515996
16	0xbc2678be	-0.010160623
17	0xbda0a3e0	-0.07843757
18	0x3d5d9b80	0.054103374
19	0xbc7a8fa3	-0.015293035
20	0xbd6a703c	-0.05723594
21	0x3a8aedd7	0.0010599446
22	0x3d82f873	0.06395044
23	0xbdafc912	-0.08583273
24	0xbd6a91aa	-0.057267822
25	0x3cbdb153	0.023155844
26	0xbc4bee85	-0.012447004
27	0xbd70d0b4	-0.058792785
28	0x3cd5fa47	0.026120318
29	0x3c141800	0.009038925
30	0x3d4cacb2	0.049969383
31	0xbc14dafc	-0.009085413
32	0xbc76fa86	-0.015074378
33	0x3c1d8245	0.009613578
34	0x3d386371	0.04501671
35	0xbd95c824	-0.073135644
36	0xbdad424f	-0.08459913
37	0xbd9ba508	-0.075998366
38	0xbd3c9df8	-0.04604909
39	0xbd7596ad	-0.05995815
40	0x3c8dec35	0.017324546
41	0x3cbf9390	0.023385793
42	0x3c890410	0.01672557
43	0xbd74b26f	-0.05974048
44	0xbd1a8594	-0.037725046
45	0xbd391459	-0.04518542
46	0xbd909b91	-0.07060922
47	0x3d1e0720	0.038581014
48	0x3c72bbf8	0.014815323
49	0x3d0b86f0	0.034064233
50	0x3dbbb9fb	0.09166332
51	0xbd9b889f	-0.07594418
52	0x3cda17f9	0.02662276
53	0xbc3022e9	-0.010750511
54	0xbd96da6e	-0.07365881
55	0xbdb49e89	-0.08819301
56	0x3c37c3e8	0.011216141
57	0xbd996f52	-0.07491936
58	0x3d7d0437	0.061771598
59	0xbd9778fb	-0.07396122
60	0x3d15de97	0.03658923
61	0x3c2caf5d	0.010539857
62	0xbd02a263	-0.031893145
63	0xbd936de9	-0.07198698
64	0xbd9ca322	-0.076483026
65	0xbc91531e	-0.017739829
66	0xbd819140	-0.06326532
67	0x3c9f32d9	0.019433426
68	0xbbdc5489	-0.0067239446
69	0x3c808def	0.01569268
70	0x3d5ce963	0.053933512
71	0x3c5da9c3	0.013529244
72	0xbd5d96e5	-0.054098982
73	0xbd0aebaa	-0.033916153
74	0x3d57f70e	0.052725844
75	0xbb0b4076	-0.0021248139
76	0xbd3ac2c5	-0.045595903
77	0xbd091f35	-0.033477027
78	0xbc87c672	-0.016574118
79	0xbd786c0b	-0.060649913
80	0x3cc9daf5	0.02464054
81	0xbb976e36	-0.0046212925
82	0x3d4d9fc8	0.050201207
83	0xbd04b3f4	-0.03239818
84	0xbc847f48	-0.016173974
85	0x3ca86b7f	0.02055907
86	0x3cd97aaa	0.026547749
87	0xbdab9d62	-0.08379628
88	0xbd098646	-0.03357532
89	0x3ce89e2c	0.028395735
90	0x3d2853c3	0.041095506
91	0xbd38efad	-0.045150448
92	0xbd805357	-0.06265896
93	0xba0ccf71	-0.00053714874
94	0xbd0396cd	-0.032126237
95	0xbd0a307a	-0.033737637
96	0xbbeaef0d	-0.0071696104
97	0xbd84bf0f	-0.06481754
98	0x3cb8572f	0.02250251
99	0x3d743efe	0.059630387
100	0xbd861e84	-0.06548789
101	0x3a2223cb	0.0006185143
102	0xbc91915f	-0.017769514
103	0xbd655996	-0.05599364
104	0x3cd8f85d	0.026485616
105	0xbcca1a34	-0.024670698
106	0xbd182318	-0.037142843
107	0xbddf0aeb	-0.10890754
108	0xbd2738e3	-0.040825736
109	0xbd817b79	-0.06322379
110	0xbceab211	-0.028649362
111	0x3d83eb1d	0.06441329
112	0x3c475506	0.012166267
113	0xbd4336c9	-0.04765967
114	0x3d6c1283	0.05763484
115	0xbd886fdd	-0.06661961
116	0xbcafb1bb	-0.021447053
117	0x3d25b19c	0.040452585
118	0xbd8a4925	-0.067522325
119	0xbd569261	-0.05238569
120	0xbda74899	-0.08168144
121	0xbc59c5fc	-0.013291832
122	0x3d309b0f	0.043116625
123	0x3c7cbd5b	0.015426005
124	0x3d714c08	0.0589104
125	0x3d2cd5aa	0.042195953
126	0xbd691d81	-0.056912903
127	0x3cd282f6	0.025697213
128	0xbce7c88e	-0.028293874
129	0x3ade39e6	0.0016954511
130	0xbd42d281	-0.047564033
131	0x3c9d2477	0.019182427
132	0x3c7cb1b4	0.015423227
133	0x3c184182	0.009292962
134	0x3d195efc	0.0374441
135	0x3cafa7ea	0.021442372
136	0xbcd03a5e	-0.025418457
137	0x3cf00135	0.02929745
138	0xbd8bcd1a	-0.068262294
139	0x3ca08a93	0.019597327
140	0xbd254681	-0.04035044
141	0xbd899748	-0.06718308
142	0x3c7e1ee2	0.015510293
143	0x3d34c477	0.044132676
144	0xbd649b50	-0.05581218
145	0xbd231655	-0.03981622
146	0xbd480331	-0.04883117
147	0xbd06309b	-0.032761198
148	0x3d444ef6	0.047926866
149	0xbb9f6254	-0.0048640165
150	0xbd4407c2	-0.04785896
151	0xbd4827d0	-0.048866093
152	0xbd00b52d	-0.031422783
153	0x3caabfd6	0.020843428
154	0x3d8b1943	0.06791928
155	0x3d6bdcb8	0.05758354
156	0x3d58110f	0.052750643
157	0x3bcaf4c8	0.006193731
158	0x3cc865e9	0.024462657
159	0x3cf15ec0	0.029464126
160	0x3d5800bb	0.05273507
161	0x3d4947c4	0.049140707
162	0xbd6f24c5	-0.058384676
163	0xbd7a7c51	-0.061153714
164	0xbd44c44b	-0.048038762
165	0xbd43581f	-0.04769146
166	0xbd2f607e	-0.04281663
167	0xbd457859	-0.048210476
168	0x3bd43585	0.0064761066
169	0xbb9fbaed	-0.004874578
170	0xbc67173d	-0.0141046615
171	0xbdb6f185	-0.08932785
172	0x3cd2c948	0.025730744
173	0xbd822a5e	-0.06355737
174	0xbda4d409	-0.08048255
175	0xbd22e599	-0.039769743
176	0xbc2299db	-0.009924377
177	0x3d0044a6	0.03131547
178	0x3c4eb86a	0.01261721
179	0x3d5de702	0.054175384
180	0x3d8783c0	0.06616926
181	0xbd92d713	-0.071699284
182	0xbd83fa64	-0.064442426
183	0xbc579e0a	-0.013160238
184	0x3cab00da	0.02087443
185	0xbc2c9381	-0.010533215
186	0x3cdbb431	0.02681932
187	0xbd2d01e3	-0.042238127
188	0xbd4947ea	-0.04914085
189	0x3c56de61	0.013114543
190	0x3d4f4886	0.050606273
191	0xbc6836e2	-0.014173241
192	0xbd80edf9	-0.0629539
193	0x3cbe7c29	0.023252564
194	0xbd2e78a8	-0.042595536
195	0x3c2ec349	0.010666677
196	0xbcee6f93	-0.029105937
197	0xbd699f5e	-0.05703675
198	0x3c853d12	0.016264472
199	0x3d10329c	0.035204515
200	0xbcf5cf89	-0.030006187
201	0xbc90f39a	-0.017694283
202	0x3d408767	0.04700413
203	0xbd79209d	-0.060822118
204	0xbd6f7cf8	-0.05846879
205	0x3c1272dd	0.008938518
206	0xbd8e9208	-0.06961447
207	0xbd42839b	-0.04748879
208	0x3d39dbb3	0.045375537
209	0xbd830a50	-0.06398451
210	0xbc90dba1	-0.017682852
211	0xbddaca93	-0.10683169
212	0xbd6b5043	-0.05744959
213	0xbd7a5543	-0.06111647
214	0xbd239aa1	-0.039942387
215	0xbd4d600c	-0.050140426
216	0xbda125c8	-0.07868534
217	0xbdb43725	-0.087995805
218	0x3d86cabf	0.065816395
219	0xbd959662	-0.07304074
220	0x3ce49472	0.027902815
221	0xbd1653a2	-0.036700852
222	0xbcd71002	-0.02625275
223	0x3cdf74ce	0.027277377
224	0xbbd25110	-0.006418355
225	0xbcbe833c	-0.023255937
226	0xbd7f7d55	-0.062375385
227	0xbc0678cc	-0.008207511
228	0x3d0ad595	0.033895094
229	0xbd454227	-0.04815879
230	0xbc748be6	-0.0149259325
231	0xbdbcbef2	-0.092161074
232	0xbd01638a	-0.03158907
233	0xbd92ede4	-0.0717428
234	0xbd2bad99	-0.041913603
235	0xbcac9739	-0.021068202
236	0xbdb5f739	-0.088850446
237	0x3cd7a1da	0.026322294
238	0x3cd554e8	0.026041463
239	0x3d7a21ab	0.061067265
240	0xbd650794	-0.05591543
241	0xbd45fca2	-0.048336633
242	0xbd13a574	-0.03604646
243	0xbd3f400f	-0.04669195
244	0xbd7f1d6e	-0.062283926
245	0xbcb16bfa	-0.021657933
246	0x3d2a0bbc	0.041515097
247	0x3c49cda5	0.012317096
248	0xbca95710	-0.020671397
249	0xbcbf91a7	-0.023384882
250	0xbd18374c	-0.03716211
251	0x3c56f2a2	0.013119372
252	0x3c86599e	0.016400155
253	0xbd9dfa8a	-0.07713802
254	0xbd8ca04f	-0.06866514
255	0xbc79c334	-0.015244294

sequential_5/conv2d_9/Conv2D f4 [64, 3, 3, 64]
0	0xbd038980	-0.032113552
1	0x3c68fe9c	0.01422086
2	0x3c80b61f	0.015711842
3	0xbd36b21a	-0.044603445
4	0xbc0519b0	-0.0081238
5	0x3c96b573	0.018397069
6	0xbdee83e4	-0.1164625
7	0x3d7880b7	0.060669627
8	0xbcffc413	-0.031221425
9	0xbd59bb4d	-0.05315714
10	0x3d78b3f2	0.060718484
11	0xbd2aa84b	-0.041664403
12	0x3c6beca5	0.014399682
13	0x3db1a8be	0.08674763
14	0x3d16ccf4	0.036816552
15	0xbba8c6d8	-0.005150657
16	0x3d60b79d	0.054862607
17	0xbd9cda64	-0.07658842
18	0x3caee8d9	0.021351265
19	0xbcec7fce	-0.028869536
20	0x3cb3b41b	0.021936467
21	0xbd14f329	-0.036364708
22	0x3db35070	0.087555766
23	0x3c9b9110	0.01899007
24	0x3cf9e800	0.030506134
25	0xbc77b508	-0.015118845
26	0x3c213665	0.009839629
27	0x3d1fecb1	0.039044086
28	0x3d5bec5a	0.0536922
29	0x3da0dbc7	0.07854419
30	0xbd6805fb	-0.05664633
31	0xbdb3affc	-0.08773801
32	0xbd1f3ee7	-0.038878348
33	0xbd5bd3b5	-0.053668696
34	0xbcc8878a	-0.024478693
35	0x3d954737	0.07288974
36	0x3d0864dd	0.033299316
37	0xbdb4daf2	-0.08830823
38	0x3d49b52a	0.049245037
39	0x3d7e6ce6	0.062115572
40	0x3d68f5e3	0.05687512
41	0x3d39164c	0.04518728
42	0x3d274d81	0.040845398
43	0xbe08b8f2	-0.13351801
44	0xbd88b2db	-0.06674739
45	0xbb29563c	-0.0025838753
46	0x3d10a2c5	0.03531148
47	0x3d7e9ecb	0.062163156
48	0x3da1c630	0.078991294
49	0xbd09d4ab	-0.03365008
50	0x3bffca6d	0.0078061135
51	0x3d8a7198	0.067599475
52	0xbc2f1bf2	-0.010687815
53	0x3d60bb89	0.054866347
54	0x3c8f05e7	0.01745887
55	0xbc82c1e6	-0.015961599
56	0xbd835964	-0.06413534
57	0x3d4bcd4d	0.049756337
58	0x3d2a7469	0.041614924
59	0x3d70b375	0.058764894
60	0x3d861210	0.06546414
61	0xbdb7ab52	-0.08968224
62	0x3d914933	0.0709404
63	0x3ba2dcfa	0.00497019
64	0x3c07c397	0.008286378
65	0x3cbec148	0.023285523
66	0x3c014f57	0.007892451
67	0xbc360df9	-0.01111173
68	0xbd682814	-0.056678846
69	0xbd3d848f	-0.046268996
70	0xbcb617c8	-0.022228137
71	0x3d3b6923	0.045754563
72	0x3cee7049	0.029106276
73	0x3c9c1cc0	0.019056678
74	0x3d567162	0.052354224
75	0x3d04c931	0.032418434
76	0x3d4fee2f	0.05076426
77	0xbdc8a42f	-0.097969405
78	0x3e11cd65	0.14238508
79	0x3da4727e	0.0802965
80	0x3b927184	0.0044690985
81	0x3cd14daa	0.025549728
82	0x3c2f0986	0.010683423
83	0xbd0470aa	-0.032334007
84	0x3d522d5c	0.05131279
85	0xbc5ee039	-0.013603264
86	0x3e13b80d	0.14425679
87	0xbdf6dc19	-0.12053699
88	0xbd8b53a6	-0.06803064
89	0x3d4244e8	0.047428995
90	0xbd8db7ee	-0.069198474
91	0x3d664b73	0.056224298
92	0xbd2ddbd0	-0.042445958
93	0x3d92b704	0.07163814
94	0xbbb9f1be	-0.00567457
95	0x3c5eadcc	0.013591241
96	0xbc03233d	-0.008004007
97	0x3bc7eadd	0.006100996
98	0x3da4108d	0.08010969
99	0x3dad71ca	0.08468969
100	0xbd9d5e17	-0.07683962
101	0xbcf72bdb	-0.03017228
102	0x3d2baa23	0.041910302
103	0x3d760027	0.06005874
104	0xbbf37a24	-0.007430332
105	0xbd185448	-0.037189752
106	0xbcf73990	-0.030178815
107	0xbdb2f0aa	-0.08737309
108	0xbdb78d02	-0.08962442
109	0x3c64266d	0.013925177
110	0x3d8d0a65	0.06886748
111	0xbd27ae05	-0.040937442
112	0x3cf04467	0.029329492
113	0xbdf645c7	-0.12025028
114	0xbd2564c5	-0.040379304
115	0x3d35d234	0.04438992
116	0x3d89c6b8	0.06727356
117	0x3c12988d	0.008947504
118	0xbca45c1f	-0.020063458
119	0xbda4b4da	-0.08042307
120	0x3cb5a4da	0.022173334
121	0x3d056d6b	0.032575052
122	0xbd86ea48	-0.06587654
123	0x3d2879a5	0.041131634
124	0xbc909387	-0.017648472
125	0xbb3e4fd6	-0.0029039285
126	0xbc902ef1	-0.017600508
127	0xbdcff3f8	-0.10153955
128	0xbd24b5ad	-0.040212322
129	0xbdb21ec3	-0.086972736
130	0xbcfc0c07	-0.030767454
131	0x3d646489	0.05575994
132	0x3d8a9903	0.06767466
133	0xbd1c5861	-0.038170222
134	0xbd91e3ca	-0.071235254
135	0x3d4ff767	0.05077305
136	0x3d1dbb27	0.03850856
137	0xbba7839c	-0.0051121246
138	0xbd1ca38a	-0.0382419
139	0x3d309d5b	0.043118816
140	0xbd8e3e6e	-0.06945501
141	0xbcb8b843	-0.0225488
142	0xbd623420	-0.05522549
143	0xbd730b30	-0.05933684
144	0x3d474e27	0.048658516
145	0xbd7d2969	-0.06180707
146	0x3d131fb6	0.035918914
147	0x3d54002d	0.05175798
148	0xbdc4b4b6	-0.096047804
149	0x3d25fa81	0.040522102
150	0x3ddeaebb	0.10873171
151	0xbd86cf52	-0.06582512
152	0xbda9c18d	-0.0828887
153	0x3d77c0d2	0.060486622
154	0x3bc15f42	0.005901248
155	0x3d992391	0.07477487
156	0xbcf5f56c	-0.030024253
157	0xbc8a575b	-0.016887357
158	0xbd38c370	-0.04510826
159	0xbc8a758b	-0.016901752
160	0x3db16784	0.08662322
161	0x3d9d0a8e	0.07668029
162	0x3d9fedf0	0.07809055
163	0xbda2c704	-0.079481155
164	0x3d3368d2	0.043801136
165	0xbdc5aee1	-0.09652496
166	0xbd85b965	-0.06529502
167	0xbd24cf91	-0.040237013
168	0xbc6d737b	-0.014492865
169	0x3d7d9ea7	0.06191888
170	0xbd61907a	-0.055069424
171	0xbd813bfd	-0.0631027
172	0x3d1477e4	0.03624715
173	0xbd6a7f87	-0.057250526
174	0xbd90ac5c	-0.07064125
175	0x3cf059fb	0.029339781
176	0xbd1471d5	-0.03624137
177	0xbd3f97f6	-0.04677578
178	0xbd6d3f5b	-0.05792175
179	0x3c675cb2	0.014121221
180	0xbd2c3195	-0.042039473
181	0x3dae73d4	0.08518186
182	0x3dab2a2f	0.08357655
183	0x3d26eb22	0.040751584
184	0xbcc80c40	-0.024419904
185	0x3cab891c	0.020939402
186	0x3c916e46	0.017752778
187	0xbcef3dca	-0.029204268
188	0xba67f0e9	-0.0008847849
189	0xbd32e193	-0.043672156
190	0x3c98d97a	0.018658388
191	0x3c282d75	0.010264744
192	0xbc31351b	-0.010815884
193	0x3d5b8352	0.053592034
194	0x3d713933	0.05889244
195	0x3d1e541b	0.038654428
196	0xbc1bdb47	-0.009512729
197	0xbcfbfb82	-0.030759577
198	0xbd515c48	-0.051113397
199	0xbd8d4afb	-0.06899067
200	0xbc7886ec	-0.015168887
201	0x3c0face2	0.008769246
202	0x3d519eda	0.051176883
203	0x3ca7c365	0.020478914
204	0xbd878e1b	-0.06618901
205	0x3cd9023a	0.02649032
206	0x3c9ffd3b	0.01952993
207	0x3c4661bf	0.012108265
208	0x3d0c87c1	0.034309153
209	0x3cca9207	0.024727834
210	0xbd47dfcb	-0.04879741
211	0x3d696b5a	0.056987144
212	0x3d763f8a	0.06011919
213	0x3cba70bf	0.02275884
214	0xbc8b300b	-0.016990682
215	0x3cd0b09e	0.025474843
216	0x3dfded20	0.12398744
217	0x3c5a9007	0.013340003
218	0xbd13464e	-0.03595572
219	0x3d645dc0	0.05575347
220	0x3d787855	0.060661633
221	0x3d138fd5	0.03602584
222	0xbb25d76c	-0.0025305403
223	0x3b140ab5	0.002258939
224	0x3d7f1997	0.062280264
225	0xbd992279	-0.07477278
226	0xbd8767cd	-0.06611595
227	0x39014699	0.00012328698
228	0xbb2afb78	-0.0026089828
229	0xbc5a80f8	-0.013336413
230	0x3bc12d9a	0.0058953287
231	0xbd4cc8d1	-0.0499962
232	0x3b9688bd	0.004593937
233	0x3cc143dc	0.023591928
234	0x3b3533c9	0.0027649275
235	0xbdd9065b	-0.10596915
236	0xbc382d5f	-0.011241286
237	0xbd558f47	-0.052138593
238	0xb9e01e6b	-0.00042747273
239	0x3cce6f0d	0.025199438
240	0x3d9c2fbc	0.07626292
241	0x3d7092ba	0.05873368
242	0xbd9bbd70	-0.07604492
243	0xbd690510	-0.056889594
244	0x3c792a93	0.015207904
245	0x3c991f19	0.018691586
246	0xbd3e2b46	-0.046427988
247	0x3d204519	0.039128397
248	0xbd521590	-0.051290095
249	0xbc0773c9	-0.008267351
250	0xbda2f5f7	-0.0795707
251	0x3b6ec8b5	0.0036435549
252	0x3b8f6c1b	0.004376901
253	0xbb337392	-0.0027382118
254	0x3d82d7f8	0.06388849
255	0xbd6d7350	-0.0579713

sequential_5/conv2d_10/Conv2D f4 [64, 3, 3, 64]
0	0xbd091da3	-0.03347553
1	0xbc98c866	-0.018650245
2	0xbc9514b8	-0.018198356
3	0xbcaa14b1	-0.02076182
4	0xbb805652	-0.00391654
5	0x3c942a66	0.018086623
6	0x3d71793d	0.058953512
7	0xbc032af7	-0.008005849
8	0xbd4b7f79	-0.049682114
9	0xbd221b4e	-0.03957682
10	0xbe095bf5	-0.13413985
11	0x3e081ebe	0.13292977
12	0x3b0b9396	0.0021297685
13	0x3c601a15	0.013678093
14	0xbd86253c	-0.06550071
15	0xbdc6bb31	-0.09703673
16	0x3de8822e	0.11352955
17	0x3d467b99	0.048457716
18	0x3c68100e	0.014163984
19	0x3e103c43	0.14085488
20	0xbc200a25	-0.009768044
21	0x3dfbbd41	0.12291957
22	0xbc8ee0ab	-0.017441114
23	0xbd0bdd4c	-0.034146592
24	0x3cc3c2dc	0.023896627
25	0x3deefa09	0.11668784
26	0x3d5c28a3	0.05374969
27	0xbb6169f9	-0.003439544
28	0xbc620808	-0.01379586
29	0xba6a7ada	-0.0008944698
30	0xbdffb760	-0.12486148
31	0xbd26c257	-0.04071268
32	0x3d2fbeea	0.04290668
33	0xbcdcf50f	-0.026972322
34	0xbd9506c2	-0.072766796
35	0x3dadaa28	0.0847972
36	0xbc9f216f	-0.019425122
37	0x3d1b8a29	0.037973557
38	0xbc36307d	-0.011119959
39	0xbdf5ce55	-0.12002245
40	0x3ca2219e	0.01979142
41	0x3d82e71f	0.06391739
42	0xbd2a1be4	-0.041530505
43	0x3c59e3b6	0.013298919
44	0xbd3fca2f	-0.046823677
45	0xbd087518	-0.033314794
46	0x3a47c3ea	0.0007620441
47	0xbe0bad31	-0.13640286
48	0xbd232e32	-0.039838977
49	0xbd7e8569	-0.06213895
50	0xbe060f3d	-0.1309175
51	0xbd7716a0	-0.06032431
52	0xbd9d482d	-0.07679782
53	0x3ca0ec74	0.019644
54	0xbe02f3c6	-0.12788305
55	0x3c7aaa17	0.015299342
56	0x3c89aebc	0.016806953
57	0xbdaa080e	-0.083023176
58	0xbe1162f7	-0.14197908
59	0x3d804c22	0.06264521
60	0xbcabf0ae	-0.020988788
61	0x3d9874fc	0.07444188
62	0x3dce965c	0.100872725
63	0xbdebe42d	-0.115181305
64	0xbde60cee	-0.11232935
65	0xbd8285b8	-0.06373161
66	0xbc708901	-0.014681102
67	0x3d4a3aa1	0.04937232
68	0xbdc179b0	-0.09447038
69	0x3db3420c	0.08752832
70	0xbd40d76d	-0.047080446
71	0x3d3d363f	0.04619431
72	0x3dd4a58a	0.103831366
73	0x3b5d5898	0.003377473
74	0xbd9aea2d	-0.07564197
75	0x3d7cd49f	0.06172621
76	0xbd436eb0	-0.04771298
77	0x3d31d9f1	0.043420736
78	0xbcd9ea73	-0.026601052
79	0xbd3e9922	-0.046532758
80	0x3dc0c48b	0.094124876
81	0x3c9d0cdf	0.019171176
82	0x3db1f3a1	0.08689047
83	0xbc3d0d0d	-0.011538756
84	0x3db1d499	0.08683128
85	0x3c212d79	0.009837502
86	0xbc365ac9	-0.011130043
87	0x3e252347	0.16126738
88	0xbd539e3c	-0.051664576
89	0x3d921000	0.07131958
90	0xbb0195c4	-0.0019773105
91	0xbcf79569	-0.030222612
92	0xbc315784	-0.010824088
93	0x3cf55af7	0.029950602
94	0xbc81657c	-0.015795462
95	0xbd944960	-0.07240558
96	0xbcb3c894	-0.021946229
97	0xbdcaca27	-0.09901839
98	0xbd9ca576	-0.07648747
99	0x3df9461e	0.12171577
100	0xbcd0d8b0	-0.02549395
101	0x3d130aa1	0.03589881
102	0xbaf5324c	-0.0018707006
103	0xbdb3198e	-0.087451085
104	0x3d262b83	0.04056884
105	0x3d250a15	0.040292818
106	0xbd08da99	-0.033411596
107	0xbc1ded2c	-0.009639066
108	0x3da0bb81	0.078482635
109	0x3daa7466	0.083229825
110	0x3bdf96ad	0.006823382
111	0xbba02132	-0.0048867697
112	0xbda2f626	-0.07957105
113	0xbd016ac7	-0.03159597
114	0x3dff3f16	0.124632046
115	0xbd8b1490	-0.06791031
116	0xbd702843	-0.058632147
117	0xbdbe95dc	-0.09305927
118	0xbd2c3121	-0.04203904
119	0xbd4b7bca	-0.0496786
120	0xbc8ab0a1	-0.016929926
121	0xbd669eb7	-0.056303706
122	0xbdcdf7b2	-0.1005701
123	0xbca16b38	-0.019704446
124	0xbcd1be7c	-0.025603525
125	0x3e056507	0.1302682
126	0x3d6531eb	0.05595581
127	0xbd2442ca	-0.040102758
128	0xbd9d63e8	-0.07685071
129	0xbcdf8cc0	-0.027288795
130	0xbc7a9a66	-0.0152956005
131	0xbc9a8bb3	-0.018865442
132	0xbd9fb106	-0.077974364
133	0xbd1b0dcd	-0.03785496
134	0x3d6cbba2	0.057796128
135	0xbd9c3cba	-0.0762877
136	0x3d3a2d64	0.045453444
137	0x3d36acbc	0.044598326
138	0x3ccf8742	0.02533305
139	0x3cbbcceb	0.022924861
140	0xbb8b5293	-0.004251787
141	0xbd6a3d32	-0.057187267
142	0xbd07eb16	-0.03318318
143	0xbda316db	-0.07963344
144	0x3def013d	0.11670158
145	0xbc16df94	-0.009208579
146	0xbca99821	-0.020702424
147	0x3b287b56	0.002570828
148	0x3d318749	0.04334191
149	0xbd947fc5	-0.072509326
150	0x3cb17bef	0.021665541
151	0x3e1afb5f	0.15134953
152	0xbd570fe4	-0.05250539
153	0x3d4cf371	0.05003685
154	0xbd14d757	-0.036338177
155	0xbc5f2aae	-0.0136210155
156	0x3ce91304	0.02845145
157	0x3dacce83	0.084378265
158	0xbd998bff	-0.07497405
159	0xbb3caafe	-0.0028788443
160	0x3c22a3b6	0.009926727
161	0xbcfbabca	-0.030721564
162	0x3bebccb2	0.0071960324
163	0x3de02afb	0.10945698
164	0xbd88033f	-0.06641244
165	0x3d9e3cdd	0.077264525
166	0x3cdf3e01	0.027251245
167	0xbd465415	-0.04842003
168	0xbc8a1393	-0.016855037
169	0xbd4b1b79	-0.049586747
170	0xbd5a8ff2	-0.053359933
171	0xbdca9f0a	-0.098936155
172	0x3d8dbcfe	0.06920813
173	0x3e0948f7	0.1340674
174	0x3d17bbc4	0.0370443
175	0x3cfc54de	0.030802187
176	0xbca45221	-0.020058693
177	0xbd16b2b9	-0.036791537
178	0x3e08af02	0.1334801
179	0x3d1b4988	0.03791192
180	0x3d4eeb18	0.05051717
181	0x392384ad	0.00015594317
182	0x3cf4444f	0.029817728
183	0xbd0f344a	-0.034961976
184	0xbd567cff	-0.0523653
185	0x3da173ec	0.078834385
186	0x3d3b2049	0.045685086
187	0xbd84f95c	-0.06492874
188	0xbdac9465	-0.084267415
189	0x3d67e32b	0.05661313
190	0x3d553250	0.052049935
191	0xbcb36549	-0.021898882
192	0x3bf949fe	0.0076076975
193	0xbce6bb9e	-0.028165635
194	0x3d8ecb21	0.069723375
195	0xbcef6a13	-0.029225385
196	0xbde773fb	-0.113014184
197	0xbcc7bca1	-0.024381937
198	0x3d363a2b	0.044489067
199	0x3ccaccf3	0.02475593
200	0x3c176c71	0.009242163
201	0x3bf3cb67	0.007440019
202	0xbd874c0b	-0.06606301
203	0xbc6471a7	-0.013943112
204	0xbe0207f7	-0.12698351
205	0x3d59ad2f	0.053143676
206	0x3c504420	0.012711555
207	0xbd856a8d	-0.065144636
208	0xbd4b5321	-0.049639825
209	0x3cc0f83c	0.023555867
210	0x3c8ef2f7	0.017449839
211	0x3d079111	0.03309733
212	0xbc5aa5b4	-0.013345171
213	0x3d8e65a0	0.06952977
214	0xbd876f53	-0.0661303
215	0xbd743ecb	-0.059630197
216	0xbd796aeb	-0.06089298
217	0x3d6711b1	0.056413356
218	0xbd21c8bb	-0.039498072
219	0xbdec519a	-0.11539002
220	0xbb850437	-0.0040593403
221	0x3d5d9d19	0.054104898
222	0xbce439a1	-0.02785951
223	0x3c8b4cd6	0.017004412
224	0xbc4d78bb	-0.012540991
225	0xbddb7cc9	-0.1071716
226	0xbdce7f58	-0.10082883
227	0x3d19373a	0.037406184
228	0xbdfb193b	-0.12260672
229	0x3ce77ba3	0.028257197
230	0xbb6b0470	-0.00358608
231	0xbdafb016	-0.085785076
232	0xbd84b325	-0.064794816
233	0xbd80903f	-0.06277513
234	0x3cb6dbc6	0.022321593
235	0xbd16ad49	-0.03678635
236	0xbc96a12f	-0.018387405
237	0x3da305c4	0.07960084
238	0x3d88a0fd	0.06671331
239	0x3b83b3f4	0.004019255
240	0xbcae8d8e	-0.021307733
241	0x3c68284f	0.014169767
242	0x3e0d9a07	0.13828288
243	0x3d5e2c40	0.05424142
244	0xbb19703f	-0.002341285
245	0x3c3add06	0.011405235
246	0xbde12427	-0.10993224
247	0xbdcf3af6	-0.10118668
248	0x3c009ec4	0.007850353
249	0xbc650044	-0.013977114
250	0xbd920cd5	-0.07131354
251	0xbd008885	-0.031380195
252	0xbd7c91dd	-0.061662544
253	0xbcf5a757	-0.02998702
254	0x3d0be946	0.034158014
255	0xbe02beb7	-0.12768064
