assets/tflite/converted_model.tflite (tflite, 742604 bytes, 16 tensors)

sequential_2/conv2d/Relu;sequential_2/conv2d/BiasAdd;sequential_2/conv2d/Conv2D;sequential_2/conv2d/BiasAdd/ReadVariableOp f4 [32, 3, 3, 3]
0	0x388bf128	6.672955e-05
1	0xb9571734	-0.00020512642
2	0xb97e4656	-0.0002424953
3	0x3981036d	0.0002460735
4	0x391595cd	0.00014265552
5	0xba1179e0	-0.0005549472
6	0x38bd0940	9.013945e-05
7	0xb95f8998	-0.00021318195
8	0xb959a683	-0.00020756763
9	0x3996fe85	0.0002879986
10	0x37e5aee0	2.738036e-05
11	0xb9f17500	-0.00046054274
12	0x3a198cb1	0.00058574515
13	0xb9a50cfb	-0.00031480924
14	0xb9aa97f0	-0.0003253813
15	0xb70cfa57	-8.402937e-06
16	0x39ce9d09	0.00039408382
17	0x3a1000fe	0.0005493312
18	0x39052346	0.00012697009
19	0x39cdb21c	0.0003923335
20	0x38d10f8b	9.968792e-05
21	0xb8f08ce5	-0.000114703354
22	0x3873d916	5.813789e-05
23	0x39e73b36	0.0004410387
24	0xb993977f	-0.00028150898
25	0xb9c11044	-0.00036823947
26	0xb83c7df2	-4.493999e-05
27	0xb9b85f6d	-0.00035166313
28	0xb97ae5b8	-0.00023927435
29	0x392e8f02	0.00016647208
30	0x38e8d910	0.00011103053
31	0x3983a2c2	0.0002510753
32	0x399cebe1	0.00029930382
33	0x39cf31da	0.0003951926
34	0x38ba8796	8.894426e-05
35	0x39c1c249	0.00036956582
36	0x3915f1dd	0.00014299848
37	0xb8c5c9ea	-9.4313014e-05
38	0x398e1efc	0.00027107436
39	0x399d10c0	0.00029957853
40	0xb91ea3fe	-0.00015129146
41	0xb91d3fa9	-0.00014996402
42	0xb9dfbda0	-0.00042675156
43	0x39b4fa7c	0.000345189
44	0xba0243ab	-0.000496919
45	0xb8c3cb25	-9.336163e-05
46	0x39821d55	0.00024817386
47	0x38f93222	0.00011882583
48	0xba1259d9	-0.00055828464
49	0xb861c8d9	-5.3831234e-05
50	0x39cb052b	0.00038723028
51	0x39e69553	0.00043980274
52	0x399dbe6d	0.00030087252
53	0x37e7da2c	2.763894e-05
54	0xba029de7	-0.0004982636
55	0x38ce794a	9.845437e-05
56	0xb9d303b5	-0.00040247818
57	0xb9e5d23b	-0.00043834918
58	0x3a1fa78c	0.0006090335
59	0x38e8bfd9	0.000110983565
60	0x39aad169	0.0003258095
61	0xb9830719	-0.00024991555
62	0xb9834b1e	-0.00025042234
63	0x39ace02d	0.0003297342
64	0x38951d0b	7.110283e-05
65	0x3a11ec1a	0.0005566493
66	0x38f522ff	0.00011689029
67	0xb9ab4201	-0.00032664838
68	0xba2dbe48	-0.00066277804
69	0xb8d8955c	-0.00010327503
70	0x394c7d74	0.00019501691
71	0x39584371	0.00020624489
72	0x3701dd1a	7.740478e-06
73	0xb988791a	-0.0002603017
74	0xb9c13a5a	-0.00036855304
75	0x39206c0a	0.00015299037
76	0xb94af1e9	-0.0001935434
77	0x3a099b1b	0.0005249248
78	0xb70ea198	-8.5014835e-06
79	0xba1761ec	-0.00057747844
80	0x398a360b	0.00026361676
81	0xba08dbe3	-0.0005220754
82	0xb9b7fac7	-0.00035091324
83	0xb9de8fe8	-0.00042450358
84	0xba00c66b	-0.0004912379
85	0x39d7cec9	0.00041162063
86	0xb8ca7375	-9.653616e-05
87	0xb9b1af6c	-0.0003389077
88	0xb8ba09e1	-8.871011e-05
89	0x38b0a0bf	8.422275e-05
90	0x390ddfa0	0.00013530115
91	0xb9995c2c	-0.00029251107
92	0xba0b483f	-0.00053131947
93	0xb9d2d7a0	-0.00040214974
94	0x393c7814	0.0001797381
95	0x3995b2bd	0.00028552665
96	0xb9eee044	-0.00045561988
97	0xb9b4c7dd	-0.00034481185
98	0xb99578e4	-0.00028509565
99	0xb9ed02d2	-0.00045206264
100	0xb5d2c230	-1.5702735e-06
101	0x39d665c3	0.0004089308
102	0xb9dd0504	-0.00042156142
103	0xb9514160	-0.00019956147
104	0xb9dafaef	-0.0004176716
105	0xb996ad58	-0.0002873938
106	0x3859390a	5.1789953e-05
107	0x390d61ff	0.00013483314
108	0xb901fc3b	-0.00012396362
109	0xb560c89e	-8.373844e-07
110	0x38c08bf1	9.1813396e-05
111	0x39cb3605	0.00038759425
112	0xba126c99	-0.00055856403
113	0xb7c3709c	-2.329825e-05
114	0x38e8dfd7	0.000111043155
115	0x370bc553	8.330989e-06
116	0x39521fbf	0.00020038987
117	0x3a00325d	0.0004890317
118	0xba07beff	-0.0005178302
119	0x38fc2a0c	0.00012024128
120	0x39febb67	0.0004858628
121	0x39405041	0.00018340444
122	0x39caec88	0.00038704672
123	0x39f6cc2c	0.00047072896
124	0x39468b30	0.00018934603
125	0xb9b95b5a	-0.00035354012
126	0x39f96d7f	0.00047574562
127	0x39790327	0.00023747665
128	0xb7b05466	-2.1020136e-05
129	0x3902fa56	0.00012491024
130	0x39b9d31f	0.00035443247
131	0x3952f701	0.00020119177
132	0x381c4971	3.7261696e-05
133	0xb80a1291	-3.2919055e-05
134	0x398c39e0	0.00026746
135	0xb9f9e918	-0.0004766665
136	0xb9e34f23	-0.00043355775
137	0x3a0d3f36	0.00053881423
138	0x384e3f4a	4.917317e-05
139	0x3a121c4c	0.00055736746
140	0xba0575cd	-0.0005091101
141	0xb9ba4108	-0.00035525137
142	0x39a1c86c	0.0003085764
143	0xb9c8eaf1	-0.00038322018
144	0xb962e727	-0.0002163915
145	0x3996287e	0.00028640399
146	0x39a93c05	0.0003227891
147	0xb9ba7c99	-0.00035569517
148	0xb886e05f	-6.43141e-05
149	0x38b73b44	8.737159e-05
150	0x3a061465	0.00051147334
151	0x39bfc2d7	0.00036575526
152	0xb97744b7	-0.00023581354
153	0xb9fd3768	-0.000482972
154	0x3951dfb3	0.00020015128
155	0x399722da	0.0002882693
156	0xb976216c	-0.00023472839
157	0xb9159509	-0.00014265267
158	0xb9fabae4	-0.0004782296
159	0x3a07868b	0.000516989
160	0x39b6fa32	0.00034900155
161	0xb7aed620	-2.0842126e-05
162	0xb9ab3e11	-0.00032661905
163	0x3a02888f	0.0004979455
164	0x38f646c9	0.00011743379
165	0xb9e7e72b	-0.00044231987
166	0xb98e9f3e	-0.00027202995
167	0xb9f05259	-0.0004583772
168	0xb812ae4a	-3.4971432e-05
169	0x38bdd829	9.052485e-05
170	0x3a048c35	0.0005056293
171	0x39251970	0.00015745102
172	0xb88e7c04	-6.794187e-05
173	0xb9ecf100	-0.00045192987
174	0xba0a356e	-0.0005272244
175	0x39f4c300	0.00046684593
176	0xb9fa0cf6	-0.00047693372
177	0x3a028412	0.00049787865
178	0x3836f5f5	4.3621247e-05
179	0x39ceab8a	0.00039419188
180	0xb95a9d0c	-0.00020848605
181	0x3a030c83	0.0004999118
182	0xb85574bb	-5.089187e-05
183	0x38b597be	8.659017e-05
184	0x3996ae93	0.00028740297
185	0x38d6539a	0.00010219887
186	0xb959cdb6	-0.00020771366
187	0x3908b711	0.00013038168
188	0xb95c6bbf	-0.00021020974
189	0xb7ac99a3	-2.057554e-05
190	0x3a0b4723	0.00053130294
191	0xb9960252	-0.00028611958
192	0xb96af721	-0.00022408042
193	0x3a10b68f	0.00055203674
194	0xb9b11561	-0.00033776
195	0x3949a243	0.00019229301
196	0x3a1a0a16	0.0005876137
197	0x3a3dc504	0.00072391354
198	0xb9d575e2	-0.00040714355
199	0xb9890fe0	-0.00026142504
200	0xba2365a0	-0.00062331
201	0xb97dd60a	-0.00024207696
202	0xb9a47498	-0.00031367387
203	0x39ad1ba2	0.0003301772
204	0x385a986a	5.2117197e-05
205	0xb8402679	-4.5812198e-05
206	0x39474c9e	0.00019006661
207	0xb945e0cb	-0.00018871126
208	0xba046b37	-0.00050513766
209	0xba08757e	-0.0005205496
210	0xb82072ab	-3.8253766e-05
211	0x3982f00e	0.00024974387
212	0x38bb02e9	8.917397e-05
213	0x388cde53	6.717131e-05
214	0xb9b0fa4b	-0.0003375582
215	0xb776b645	-1.4705181e-05
216	0xb6785aec	-3.7007803e-06
217	0xb7efa84a	-2.8569386e-05
218	0x39d03987	0.00039715713
219	0xb907e779	-0.00012960834
220	0x38281a64	4.00789e-05
221	0xb6ed755f	-7.076814e-06
222	0x3988200e	0.00025963824
223	0xb8b02411	-8.399052e-05
224	0x3a1d2996	0.00059952715
225	0x39cdfeb1	0.00039290407
226	0xb9dac704	-0.00041728478
227	0xb995a46f	-0.00028542007
228	0x39e4b994	0.00043625815
229	0x38efa557	0.00011427205
230	0x39bf674a	0.00036507315
231	0xb928c112	-0.00016093653
232	0xba1c949c	-0.0005973072
233	0xb99150e8	-0.00027716835
234	0xb91398fc	-0.00014076004
235	0xb982a80e	-0.00024920743
236	0x37696b0a	1.3912804e-05
237	0x39ff1e3f	0.00048659925
238	0xb9cfe18c	-0.00039650162
239	0xb8f3f254	-0.0001163228
240	0x38f3cdba	0.000116254625
241	0xb9defd07	-0.0004253166
242	0x38083a05	3.247896e-05
243	0xb8b6bdf5	-8.7138185e-05
244	0x39af9bf2	0.0003349479
245	0x3a09e878	0.0005260776
246	0xb90ea19e	-0.00013602382
247	0xb88263c1	-6.217464e-05
248	0xba0f9fc7	-0.0005478826
249	0x39c9f6ff	0.00038521734
250	0xb8e7cae1	-0.000110527275
251	0xb7824e88	-1.5533777e-05
252	0xb9a1c9d2	-0.0003085868
253	0xba014ecd	-0.00049327017
254	0x39b98396	0.0003538399
255	0xba16bdd5	-0.0005750333

sequential_2/conv2d/BiasAdd/ReadVariableOp f4 [32]
0	0xbd34fcd2	-0.04418642
1	0xbcd5d408	-0.026102081
2	0xbc33a1e8	-0.010963894
3	0xbc17809f	-0.009246974
4	0xbc905707	-0.017619623
5	0x3c3cbe85	0.011520033
6	0xbbdf8a91	-0.0068219383
7	0x3d219bd0	0.039455235
8	0x3c973350	0.018457085
9	0x3c4084a8	0.011750378
10	0xbb291e1c	-0.00258053
11	0xbd01c6b2	-0.03168363
12	0xbc861893	-0.01636914
13	0xbc29c3e9	-0.01036165
14	0xbb935113	-0.004495749
15	0xbcd397cc	-0.025829218
16	0x3ccbb411	0.024866136
17	0x3d0d6c83	0.034527313
18	0x3d0970fd	0.03355502
19	0x3d585360	0.052813888
20	0xbca4ba79	-0.020108448
21	0x3c52cd02	0.0128662605
22	0xbc3356bb	-0.010945971
23	0xbd03243e	-0.032016985
24	0xbd230cd7	-0.039807167
25	0x3c666845	0.014062946
26	0xbd3cf860	-0.046135306
27	0xbb81a2d4	-0.003956178
28	0xbc1bb04c	-0.009502482
29	0xbc2541df	-0.010086506
30	0xbaf70fa5	-0.0018849267
31	0xbcf23d30	-0.029570192

sequential_2/conv2d_1/BiasAdd/ReadVariableOp f4 [64]
0	0xbcc0ea46	-0.02354921
1	0x3c8185f3	0.015810942
2	0xbbec658c	-0.007214254
3	0x3c83dfde	0.01609796
4	0x3c029fdf	0.007972687
5	0xbd1efb58	-0.03881392
6	0xbd3a6f84	-0.045516506
7	0x3ca8d708	0.020610347
8	0xbcc25a74	-0.023724772
9	0x3cc82b71	0.024434777
10	0xbbb72a26	-0.0055897413
11	0xbcdd8a29	-0.027043419
12	0xbb52b900	-0.0032153726
13	0xbcb73222	-0.022362772
14	0xbcd02be2	-0.02541155
15	0xbca7aa29	-0.02046688
16	0xbc03b25c	-0.00803813
17	0x3cd5d8cc	0.026104353
18	0x3d43876e	0.047736578
19	0x3c6839a2	0.014173897
20	0xbd16f49a	-0.036854364
21	0xbd12c62a	-0.035833515
22	0xbc85eb2b	-0.016347488
23	0xbb227e33	-0.002479446
24	0xbc0d2c14	-0.008616466
25	0x3c5717d2	0.013128238
26	0xbb036298	-0.002004778
27	0xbc57bc3f	-0.01316744
28	0xbc6bd9e7	-0.014395214
29	0xbcaa37b9	-0.020778524
30	0xbcbcb354	-0.023034729
31	0x3b95fd3d	0.0045773075
32	0xbca78f9d	-0.020454222
33	0x3c9d1f8a	0.019180078
34	0xbd3e90a9	-0.046524677
35	0x3d60ce67	0.05488434
36	0xbc4f84f8	-0.01266598
37	0xbb13643f	-0.0022490171
38	0xbcb643d0	-0.022249132
39	0xbce6ed44	-0.028189309
40	0xbbd8e180	-0.0066186786
41	0xbcc0bbc7	-0.02352704
42	0xbd45b993	-0.04827268
43	0xbcc57038	-0.024101362
44	0xbc92ba97	-0.017911239
45	0xbc85c7d3	-0.016330635
46	0xbcd80054	-0.026367344
47	0x3cb80c8a	0.022466917
48	0xbb4b2053	-0.0030994609
49	0x3cb392df	0.02192062
50	0x3da0e100	0.07855415
51	0x3b188f0c	0.0023278622
52	0x3c1a5be7	0.009421325
53	0xbd2f0d89	-0.042737518
54	0xbbcd9920	-0.0062743574
55	0x3caf9d9b	0.021437457
56	0xbc6c208f	-0.014412059
57	0x3b4b7637	0.0031045803
58	0xbc2316c6	-0.00995416
59	0xbcad9bec	-0.021192513
60	0xbd6ccb03	-0.057810795
61	0xbd41d11e	-0.04731857
62	0xbcefa9f4	-0.029255845
63	0xbb12d850	-0.0022406764

sequential_2/conv2d_2/BiasAdd/ReadVariableOp f4 [64]
0	0x3cd39252	0.025826607
1	0xbc7e697c	-0.015528079
2	0xbaf1392a	-0.0018403877
3	0xb86aa775	-5.5945904e-05
4	0xbc8da880	-0.017292261
5	0xbc7d9d71	-0.0154794315
6	0xbd272cf7	-0.040814366
7	0xbcfda70a	-0.03096344
8	0xbc899ba2	-0.016797844
9	0xbceb0a90	-0.02869156
10	0x3c08a239	0.008339458
11	0xbd25c55a	-0.040471412
12	0xbcd26d6c	-0.025686942
13	0xbc9e89fb	-0.019352904
14	0xbccb2ff3	-0.024803137
15	0xbcdf4565	-0.02725477
16	0x3ca14827	0.019687725
17	0x3c9dc1d6	0.019257467
18	0x3bec70a9	0.0072155786
19	0xbce46941	-0.02788222
20	0xbc5cc50c	-0.013474714
21	0xbaa75bbc	-0.0012768428
22	0xbca9c1f8	-0.020722374
23	0x3a34943c	0.0006888544
24	0xbd0e0187	-0.034669425
25	0xbc81ca04	-0.015843399
26	0x3d1b13c3	0.037860643
27	0x3d2517ac	0.04030578
28	0xbc9407fe	-0.018070217
29	0x3cad5940	0.021160722
30	0xbcada954	-0.021198906
31	0xbcd0ba9d	-0.02547961
32	0x3d586f8f	0.052840766
33	0xbd2fa004	-0.042877212
34	0xbd189313	-0.037249636
35	0xbd0302c9	-0.031985078
36	0xbc93abad	-0.018026197
37	0xbc89de28	-0.016829565
38	0xbce3f67f	-0.0278275
39	0xbcffab02	-0.031209473
40	0xbcb44816	-0.02200703
41	0xbc47c39a	-0.012192631
42	0xba902375	-0.0010996895
43	0xbc9dd192	-0.01926497
44	0xbc19b606	-0.009381777
45	0xbd07ec6e	-0.03318446
46	0xbc8e3a1b	-0.017361691
47	0x3da542cf	0.08069383
48	0x3cedfd7e	0.029051539
49	0xbc3e65f8	-0.011620991
50	0x3c2c2ea6	0.010509169
51	0x3bcc751d	0.006239547
52	0x3ca7a01b	0.020462086
53	0xbc095ab6	-0.008383444
54	0xbcd526c7	-0.026019467
55	0xbca174d0	-0.01970902
56	0x3c55f681	0.013059259
57	0xbb952825	-0.0045519047
58	0xbc7ccdb3	-0.015429902
59	0xbc5592a3	-0.013035449
60	0xbd21db78	-0.039515942
61	0x3d28a838	0.04117605
62	0x3bfefb10	0.007781394
63	0xbd1f04d8	-0.03882298

sequential_2/conv2d_3/BiasAdd/ReadVariableOp f4 [64]
0	0x3c6c3b9a	0.014418507
1	0xbcd36a95	-0.025807658
2	0xbd3d43c4	-0.046207204
3	0xbc57f5c9	-0.013181158
4	0x3c17110b	0.009220372
5	0xbcd4284e	-0.025898125
6	0x3cfa46ce	0.03055134
7	0xbd25250a	-0.040318526
8	0x3dc987bc	0.098403424
9	0xbd24d59d	-0.04024278
10	0x3ccc5634	0.024943449
11	0x3c240d49	0.010012933
12	0xbd0262db	-0.031832557
13	0xbccabe9a	-0.024749089
14	0xbd369f49	-0.0445855
15	0x3d3c90c1	0.046036486
16	0x3c366ee0	0.011134833
17	0xbd0c9d07	-0.03432944
18	0xbd1a97c5	-0.037742395
19	0xbc3a948a	-0.011387954
20	0x3d037953	0.032098126
21	0xbc598cca	-0.013278196
22	0xbc4f5ac9	-0.012655922
23	0xbc20e1c4	-0.009819452
24	0xbc3e23df	-0.011605232
25	0x3c20df34	0.009818841
26	0xbd337056	-0.043808304
27	0x3d92f853	0.0717627
28	0x3d101c8a	0.035183467
29	0xbb729587	-0.0037015395
30	0xbd23a8f1	-0.039956037
31	0x3dcc03d7	0.0996167
32	0x3d88c16c	0.06677517
33	0xbb9a6774	-0.0047120396
34	0x3d069799	0.03285942
35	0x3ccb8315	0.024842778
36	0xbd1ad777	-0.03780314
37	0xbd1407b0	-0.036140144
38	0xbd1c06db	-0.038092475
39	0x3d2d754d	0.042348195
40	0xbc9525ce	-0.018206503
41	0xbd5578d0	-0.05211717
42	0xbc5f07b2	-0.013612675
43	0xbcb3f2de	-0.021966394
44	0x3c828b95	0.015935699
45	0xbd16c92e	-0.036812954
46	0x3d409595	0.047017653
47	0xbd0942e4	-0.033511057
48	0x3d21f99b	0.039544683
49	0xbc41972f	-0.01181583
50	0xbced0aaf	-0.028935758
51	0xbd4df755	-0.050284702
52	0xbbd7bdf9	-0.006583926
53	0x3cea2406	0.02858163
54	0xbc127cd6	-0.008940896
55	0xbc9bcd73	-0.019018864
56	0xbcf6646b	-0.03007718
57	0xbd0a66ad	-0.033789326
58	0x3d15889c	0.036507234
59	0x3d02a88c	0.03189902
60	0x3c85784d	0.016292715
61	0xbb98619f	-0.004650309
62	0xbce0e676	-0.027453642
63	0xbc35ef71	-0.011104451

sequential_2/conv2d_4/BiasAdd/ReadVariableOp f4 [64]
0	0xbc16168a	-0.009160647
1	0x3d65c635	0.056097228
2	0x3d194662	0.037420638
3	0xbcdfdbb5	-0.027326444
4	0xbd517489	-0.051136527
5	0xbc09ed18	-0.008418344
6	0xbadca80c	-0.001683475
7	0x3c1f4eab	0.009723346
8	0xbbbeeba4	-0.0058264304
9	0xbd12ef08	-0.03587249
10	0x3dbf8587	0.0935164
11	0xbc844c2b	-0.016149601
12	0x3ae2fada	0.0017317191
13	0xbc323a62	-0.010878177
14	0x3b41c51f	0.0029566956
15	0xbc563698	-0.01307454
16	0x3c51d051	0.012806014
17	0xbd575906	-0.052575134
18	0xbb3407c1	-0.0027470442
19	0x3ce7a60b	0.028277418
20	0xbc805645	-0.015666137
21	0xbc636f27	-0.013881481
22	0xbcb74f50	-0.022376686
23	0x3d60e0d6	0.05490192
24	0xbba473d2	-0.0050186897
25	0xbd05ded3	-0.032683205
26	0xbcebdcce	-0.028791811
27	0xbb49c123	-0.0030785284
28	0xbda2bff4	-0.079467684
29	0xbbe2d10e	-0.006921894
30	0xbc8a12e4	-0.01685471
31	0xbc80a3fa	-0.01570319
32	0xbd357c73	-0.044308137
33	0x3b022848	0.0019860435
34	0xbc4e0820	-0.012575179
35	0xbc75a400	-0.014992714
36	0xbc2d25a3	-0.010568055
37	0x3ca60d4a	0.020270009
38	0xbbe5abe5	-0.007009017
39	0x3da34ae3	0.07973268
40	0xbca2c56a	-0.019869525
41	0x3dbc3eb7	0.091916494
42	0xbc00a72c	-0.007852357
43	0x3c0d7111	0.008632914
44	0xbd27f698	-0.041006655
45	0xbbcb0e8a	-0.0061968016
46	0x3b42dac7	0.0029732452
47	0xbc5a6a15	-0.013330956
48	0xbc1a526d	-0.009419066
49	0xbc0a131c	-0.008427408
50	0xbb7c6eb0	-0.0038518123
51	0xbc31e143	-0.010856929
52	0x3dad856e	0.08472715
53	0xbbfb704a	-0.007673298
54	0xbc45250b	-0.0120327575
55	0xbb799a45	-0.0038086337
56	0x3d2b7735	0.04186173
57	0xbc79f76a	-0.015256742
58	0x3cc8045d	0.024416143
59	0x3cb8204f	0.022476343
60	0xbc8ed779	-0.01743673
61	0x3ceec47d	0.029146427
62	0x3d214b16	0.03937825
63	0xbd24094a	-0.04004792

sequential_2/conv2d_5/BiasAdd/ReadVariableOp f4 [64]
0	0xbd1c92c9	-0.038225923
1	0xbbb5e1b3	-0.005550587
2	0x3c14b8f8	0.009077303
3	0xbc55a969	-0.013040879
4	0xbcd66686	-0.026171934
5	0xbc457723	-0.01205233
6	0xbc6a50bd	-0.014301476
7	0xbcf90a7f	-0.030400513
8	0xbb4283ef	-0.002968069
9	0xbc6ce6cf	-0.014459326
10	0x3d5d4e7b	0.054029923
11	0xbc2fdf16	-0.01073434
12	0xbd850f1d	-0.06497023
13	0xbce89102	-0.028389458
14	0xbba518a5	-0.0050383382
15	0x3d37d49c	0.044880494
16	0xbc7a33a3	-0.0152711
17	0xbd1aa01a	-0.03775034
18	0xbc69ee52	-0.014278011
19	0xbd337791	-0.0438152
20	0xbd5b62cf	-0.053561028
21	0xbc004213	-0.007828253
22	0xbcbb2cb5	-0.022848466
23	0xbd395dd4	-0.045255497
24	0x3d910560	0.07081103
25	0xbc7c5ae7	-0.015402532
26	0xbd29e9d1	-0.04148275
27	0x3de93136	0.11386339
28	0x3a10f5a6	0.00055297685
29	0xbc13d629	-0.009023228
30	0xbcbcfd3b	-0.023069968
31	0x3c562266	0.013069725
32	0xbafd3fe0	-0.0019321404
33	0xbcd75308	-0.02628471
34	0xbc2f56b9	-0.010701829
35	0xbbab8948	-0.005234871
36	0x3d274afe	0.040843002
37	0x3c64f81a	0.013975168
38	0xbc734c36	-0.014849713
39	0xb8aad3e0	-8.1456965e-05
40	0xbd50b7b8	-0.050956458
41	0x3d3cb6f2	0.046072908
42	0xbd7e9587	-0.06215432
43	0xbc2067e3	-0.0097903935
44	0xbd609eb0	-0.054838836
45	0x3e059735	0.13045962
46	0xbaa64cc1	-0.0012687669
47	0xbc47558d	-0.012166393
48	0xbbcce561	-0.00625293
49	0x3c9be21d	0.019028718
50	0x39dcb5e6	0.00042097195
51	0x3ca33151	0.019920977
52	0x3cd4481e	0.025913294
53	0x3d2486dc	0.040167674
54	0xbcdbffd5	-0.026855389
55	0x3c446556	0.011987051
56	0xbd589df0	-0.052884996
57	0xbd0aa543	-0.033849012
58	0xbd33646d	-0.043796945
59	0xbd721593	-0.059102606
60	0x3db6da3f	0.08928346
61	0x3d404463	0.04694022
62	0x3ceb8a08	0.028752342
63	0xbd4a30ae	-0.04936283

sequential_2/conv2d_1/Conv2D f4 [64, 3, 3, 32]
0	0xbdbe144f	-0.09281217
1	0xbe0a0c9c	-0.13481373
2	0xba799677	-0.0009521017
3	0xbc90e334	-0.017686464
4	0xbdbdf867	-0.092758946
5	0xbda12b71	-0.07869614
6	0xbb636da1	-0.0034702795
7	0xbd96f1f1	-0.073703654
8	0x3d11dc11	0.035610262
9	0x3cfc2b63	0.030782407
10	0x3ce496cc	0.027903937
11	0xbdc647f1	-0.096816905
12	0xbdab95c1	-0.08378173
13	0x3d657cd9	0.056027267
14	0xbd6eea43	-0.058328878
15	0xbd22709f	-0.039658185
16	0xbd4a0d76	-0.049329244
17	0xbc54908e	-0.012973918
18	0x3dc0aa36	0.09407465
19	0xbcc727cf	-0.024310974
20	0xbb56f7e8	-0.0032801572
21	0x3cb56631	0.022143455
22	0x3d18f770	0.03734535
23	0xbccbf6c8	-0.024897948
24	0xbdcf53e8	-0.10123426
25	0x3b75e98b	0.0037523236
26	0x3d014dd1	0.031568352
27	0x3c5a2ea2	0.013316782
28	0xbc255d91	-0.010093109
29	0xbe0842be	-0.1330671
30	0xbe03e6da	-0.12881032
31	0xbc9ea041	-0.019363524
32	0xbd88fcb9	-0.06688828
33	0xbd8c353a	-0.0684609
34	0xbc7121d1	-0.014717535
35	0x3d1494a6	0.036274575
36	0x3b1115cd	0.0022138238
37	0x3db36ee9	0.08761389
38	0x3c6af970	0.014341697
39	0x3da43ac1	0.08019019
40	0xbddccef5	-0.107816614
41	0x3d790591	0.060796324
42	0xbda202f8	-0.079107225
43	0xbdf13ef9	-0.11779589
44	0xbcd1cf03	-0.025611406
45	0xbd93d3e0	-0.07218146
46	0x3cde5978	0.027142271
47	0xbd8b051f	-0.06788086
48	0x3c9699a5	0.01838381
49	0xbdb9e185	-0.090762176
50	0x3c5ed2a8	0.013600029
51	0x3bcb6745	0.006207379
52	0x3ca9b516	0.020716231
53	0x3df373b8	0.11887306
54	0xbbfae1ab	-0.0076562962
55	0xbd11851b	-0.03552733
56	0x3d227d1a	0.039670087
57	0xbd84dc3d	-0.064873196
58	0xbdea850a	-0.114511564
59	0x3d0e4c82	0.034740932
60	0x3d442284	0.04788448
61	0xbd86bba4	-0.06578758
62	0xbd2f7d4f	-0.042844113
63	0xbda0b769	-0.07847483
64	0xbd001771	-0.031272355
65	0xbbc1f1e0	-0.0059187263
66	0xbdcb3b5b	-0.099234305
67	0xbbcfe31f	-0.0063442136
68	0x3d499a22	0.049219258
69	0x3d300eab	0.04298274
70	0x3da65dc8	0.08123356
71	0x3bca8c66	0.0061812876
72	0x3b63d484	0.003476412
73	0x3dddfaa2	0.1083882
74	0xbc872baa	-0.016500313
75	0xbb02d2ef	-0.0019962152
76	0x3c97e96b	0.01854392
77	0xbdbb823a	-0.09155698
78	0xbd7539f7	-0.059869733
79	0xbdc91601	-0.0981865
80	0x3da2eb10	0.07954991
81	0x3d40892f	0.04700583
82	0xbcba8ba5	-0.022771666
83	0xbc94971f	-0.018138466
84	0xbd17b7a3	-0.037040364
85	0x3e415c15	0.18882783
86	0x3d148468	0.036259085
87	0xbd47fff2	-0.048828073
88	0xbc9fb012	-0.019493137
89	0xbc74073f	-0.014894306
90	0xbd9eb434	-0.07749215
91	0x3db3a913	0.08772483
92	0xbd7cc820	-0.06171429
93	0xbda6f3d5	-0.08151976
94	0xbe07c7da	-0.13259831
95	0xbd8e2648	-0.06940895
96	0x3c7ca3ba	0.015419895
97	0x3d12ab47	0.035807874
98	0xbc6096d6	-0.013707837
99	0xbd988839	-0.074478574
100	0xbcf70e81	-0.030158283
101	0x3d1aae40	0.037763834
102	0x3c1635ef	0.009168132
103	0x3d8dd5fc	0.0692558
104	0xbdb1e474	-0.08686152
105	0x3ca4f580	0.020136595
106	0xbb5b7839	-0.0033488406
107	0x3d11e298	0.035616487
108	0x3d0804f3	0.033207845
109	0x3c27c2a3	0.010239276
110	0x3c85a26c	0.0163128
111	0xbdf2b515	-0.11850945
112	0x3e0dea93	0.13859014
113	0x3c81f2d5	0.015862862
114	0x3d4fcc51	0.05073196
115	0x3d613b91	0.054988448
116	0xbc6ceeb8	-0.014461212
117	0x3e219f2b	0.15783374
118	0x3db23849	0.08702142
119	0xbd7da29d	-0.06192266
120	0x3b6e7bc7	0.0036389695
121	0xbcb6449e	-0.022249516
122	0xbe08f977	-0.13376413
123	0xbceb606d	-0.028732503
124	0x3d865709	0.065595694
125	0x3d02d0a5	0.03193726
126	0xbd01b892	-0.03167016
127	0xbceee32c	-0.029161058
128	0xbd832ec4	-0.06405404
129	0x3d558396	0.052127443
130	0x3db2851c	0.08716795
131	0xbda6571b	-0.08122083
132	0xbd921b58	-0.07134122
133	0x3d2a2746	0.04154136
134	0x3c9b3fb3	0.018951273
135	0x3cc25160	0.023720443
136	0xbcdcd548	-0.02695717
137	0xbd2afb40	-0.041743517
138	0xbdbe61aa	-0.09295972
139	0xbdaf8ff4	-0.08572379
140	0x3df44bb2	0.119285
141	0xbd604fac	-0.05476348
142	0x3d894e60	0.06704402
143	0x3cf76b17	0.030202432
144	0x3e298259	0.1655363
145	0xbe018919	-0.12649955
146	0xbdad9859	-0.08476324
147	0x3cf119a7	0.029431177
148	0x3d792ad2	0.060831852
149	0x3e298809	0.165558
150	0x3c5b4036	0.013382008
151	0xbdbb9b21	-0.09160448
152	0xbdaf258b	-0.08552083
153	0xbcfb6407	-0.030687345
154	0xbd358429	-0.04431549
155	0x3d26c7c0	0.04071784
156	0x3d60015d	0.0546888
157	0x3d031fe4	0.032012835
158	0xbd8e90d1	-0.06961215
159	0xbd5ab74a	-0.053397454
160	0x3d9c5987	0.076342635
161	0x3cfda99f	0.03096467
162	0x3d8ce7d4	0.06880155
163	0xbd6c4fe3	-0.057693373
164	0xbc0a8af4	-0.008455981
165	0xbd866ea4	-0.06564072
166	0xbcb236ec	-0.021754704
167	0xbd3b6b63	-0.04575671
168	0xbdd36b5d	-0.10323212
169	0xbde5fcfb	-0.11229893
170	0xbde2961b	-0.110637866
171	0xbcc89a2e	-0.024487581
172	0x3db77b8b	0.08959111
173	0xbaf529f4	-0.001870452
174	0xbc7ecd80	-0.015551925
175	0xbd914a79	-0.07094283
176	0x3dd4245e	0.10358499
177	0xbd9dade1	-0.076991804
178	0xbd48760d	-0.048940707
179	0x3d93fa9a	0.07225533
180	0x3b97f92a	0.004637857
181	0x3e36afbd	0.17840476
182	0xbd669dcb	-0.056302827
183	0x3ae3c661	0.0017377847
184	0xbcccbd6b	-0.024992665
185	0xbd9331c7	-0.07187229
186	0xbb6ef868	-0.003646398
187	0xbd1dd469	-0.03853265
188	0xbda02f9d	-0.078215815
189	0x3c52d8f3	0.012869108
190	0x3b1c6c7a	0.0023868368
191	0xbb68fb06	-0.0035550012
192	0xbd6bcd4f	-0.057568844
193	0x3bddc22d	0.0067675323
194	0xbc3cc959	-0.011522614
195	0x3da0d335	0.078527845
196	0x3d48712e	0.04893606
197	0x3c155f99	0.009117031
198	0x3c98f2e1	0.018670501
199	0x3cc2f7c0	0.023799777
200	0xbca3ed19	-0.020010518
201	0x3db805d3	0.08985486
202	0x3d6654ed	0.056233335
203	0xbd6b94a4	-0.0575148
204	0x3db261d9	0.08710069
205	0x3c01b61b	0.0079169525
206	0xbdddab86	-0.10823731
207	0x3d08d573	0.033406686
208	0x3c8b6517	0.017015977
209	0xbdd63eaa	-0.10461171
210	0x3da9d9b6	0.08293478
211	0x3d60d2fb	0.054888707
212	0xbd7d1e91	-0.06179673
213	0x3da25817	0.07926958
214	0xbd9104aa	-0.07080968
215	0xbd6436a6	-0.05571618
216	0x3d2f32b6	0.04277297
217	0xbd02a3de	-0.031894557
218	0xbde358b2	-0.11100902
219	0x3d234b5e	0.039866798
220	0x3d4b8e9e	0.049696557
221	0x3d32ed61	0.043683413
222	0x3b04b7fe	0.002025127
223	0xbda6722c	-0.08127245
224	0xbd032978	-0.03202197
225	0x3c8d9534	0.01728306
226	0x3dbc3ecd	0.09191666
227	0xbba95b17	-0.0051683295
228	0x3bbc261f	0.005741849
229	0xbd9df48c	-0.07712659
230	0xbd804678	-0.06263441
231	0xbc1edc42	-0.009696068
232	0xbc4169d2	-0.011805015
233	0x3d098f55	0.033583958
234	0x3d1ecfaf	0.03877228
235	0xbba84afb	-0.0051358915
236	0x3d5a30a6	0.05326905
237	0xbdb8be4e	-0.09020673
238	0x3d335802	0.043785103
239	0x3cc7a2ff	0.024369715
240	0x3d36d7d4	0.044639423
241	0x3ccaa261	0.024735631
242	0x3d8c8b82	0.068625465
243	0xbb6f8f05	-0.0036553752
244	0x3b7b0945	0.0038305086
245	0x3d288063	0.041138064
246	0x3ccacac4	0.02475489
247	0x3d01d5a8	0.0316979
248	0xbd60cec6	-0.054884695
249	0x3d2e1039	0.04249594
250	0x3caf98c9	0.021435158
251	0xbc51e8d8	-0.012811862
252	0xbb83bd60	-0.004020378
253	0x3c1cf615	0.009580155
254	0x3d25fabe	0.04052233
255	0xbd02d8ac	-0.031944916

sequential_2/conv2d_2/Conv2D f4 [64, 3, 3, 64]
0	0xba288060	-0.0006427821
1	0x3d89534d	0.067053415
2	0xbded5883	-0.11589148
3	0x3ce6c7c4	0.028171428
4	0xbcfff20a	-0.031243343
5	0x3d2071f0	0.03917116
6	0xbd89e7e6	-0.06733684
7	0x3d067dbe	0.03283476
8	0xbd033232	-0.03203029
9	0xbe0388af	-0.1284511
10	0x3d1a0377	0.03760096
11	0xbd95c523	-0.073129915
12	0xbc7a63d1	-0.015282587
13	0x3c5c6a08	0.013453014
14	0xbcfa5f12	-0.030562911
15	0xbd1d1cac	-0.03835742
16	0xbd3ef308	-0.04661849
17	0x3d677cc3	0.056515466
18	0x3cc7545f	0.024332223
19	0x3dcb224b	0.0991865
20	0x3cb1a86b	0.021686753
21	0x3c26b23c	0.01017433
22	0x3cccb11c	0.024986796
23	0xbd1b2784	-0.037879482
24	0xbda405f6	-0.080089495
25	0x3cc7240e	0.024309184
26	0x3d66c722	0.05634225
27	0xbd2fb1e7	-0.04289427
28	0xbdaa4508	-0.08313948
29	0xbd2aa4a7	-0.04166093
30	0x3d9c691d	0.07637236
31	0xbc014e09	-0.00789214
32	0xba27a0ac	-0.00063944864
33	0x3bc5a04e	0.0060310727
34	0x3d49a774	0.04923196
35	0xbc8a97fb	-0.016918173
36	0xbc338819	-0.010957741
37	0xbd91970a	-0.071088865
38	0xbd423a15	-0.047418673
39	0x3c1b347a	0.009472961
40	0x3caa4e10	0.020789176
41	0xbe0015db	-0.12508337
42	0xbd954b82	-0.072897926
43	0xbb7262dc	-0.0036985194
44	0xbdfa6b2e	-0.12227474
45	0xbbe03a48	-0.006842885
46	0x3d2c42d4	0.04205592
47	0xbdcce825	-0.100052156
48	0x3d9675e7	0.07346707
49	0xbcb9f360	-0.022699058
50	0xbca83c20	-0.020536482
51	0x3d82bce4	0.06383684
52	0x3c8e2038	0.017349347
53	0x3ce5f71f	0.028071938
54	0x3c867beb	0.01641651
55	0x3d849abf	0.06474828
56	0xbc704fb0	-0.0146674365
57	0xbdbbdcad	-0.0917295
58	0x3bc9b1b2	0.006155216
59	0xbc192baf	-0.009348794
60	0x3cd59e15	0.026076356
61	0xbd491add	-0.049097884
62	0x3cc226a6	0.02370007
63	0x3c92f080	0.017936945
64	0xbc66d154	-0.014087994
65	0x3d8d6e9c	0.06905863
66	0xbcfb4b6e	-0.030675616
67	0xbb6f2b94	-0.003649448
68	0xbd2af3b8	-0.041736335
69	0xbd086112	-0.0332957
70	0xbdcac560	-0.099009275
71	0x3d34484e	0.044014268
72	0xbdc12968	-0.09431726
73	0xbbeb17ac	-0.0071744528
74	0x3d19519e	0.03743135
75	0xbdcfda62	-0.10149075
76	0x3d593cdd	0.05303656
77	0xbd301d5f	-0.04299676
78	0xbd03117e	-0.031999104
79	0x3cba82cc	0.022767447
80	0xbd6363bd	-0.05551504
81	0xbcd1e6b8	-0.02562271
82	0xbd54dd53	-0.051968884
83	0xbb95175d	-0.0045499043
84	0x3c83562a	0.016032297
85	0xbbb942d5	-0.005653719
86	0xbd0c1514	-0.03419979
87	0xbc3bb545	-0.011456792
88	0x3cfffc29	0.031248169
89	0x3c2b8029	0.0104675675
90	0x3bc482e7	0.00599705
91	0xbbd7335d	-0.0065674023
92	0xbdc85484	-0.09781745
93	0xbd6ec3c5	-0.05829217
94	0xbc4c4041	-0.012466491
95	0xbba2d464	-0.0049691666
96	0xbd7ff164	-0.062486067
97	0x3d33fcf4	0.043942407
98	0x3ccf481d	0.025302941
99	0x3d6ae4aa	0.057346977
100	0x3cdbd592	0.026835237
101	0x3d049a2c	0.032373592
102	0xbd99e5d3	-0.075145386
103	0x3d828484	0.063729316
104	0x3dc52a30	0.09627187
105	0xbc7fb23c	-0.015606459
106	0x3cb2b5af	0.02181515
107	0xbd013940	-0.03154874
108	0xbdac49a0	-0.0841248
109	0x3d9eef24	0.07760456
110	0xbd6f3a42	-0.05840517
111	0xbb95a4e8	-0.0045667775
112	0x3cdf1877	0.027233345
113	0x3cd6b9a1	0.026211562
114	0x3dc3db65	0.095633306
115	0x3cf3e821	0.029773774
116	0xbd5e3213	-0.054246973
117	0x3d5bcc49	0.05366162
118	0xbc463666	-0.012097931
119	0xbb32b00c	-0.0027265577
120	0xbd5871ff	-0.05284309
121	0xbcd27774	-0.025691725
122	0xbd490527	-0.04907718
123	0x3d21bbd6	0.039485775
124	0x3d2d6c74	0.042339757
125	0x3c9e872f	0.01935157
126	0x3db09247	0.0862165
127	0x3d238069	0.039917383
128	0x3d6ec696	0.058294855
129	0x3d483334	0.048876956
130	0xbd0ed41a	-0.034870245
131	0x3d48577c	0.048911557
132	0xbd452f00	-0.048140526
133	0xbc7db3a9	-0.015484729
134	0xbd236f45	-0.039901037
135	0x3cf5bc5d	0.029997045
136	0x3bbac8e4	0.0057002176
137	0x3d1ad83c	0.037803873
138	0xbd0c840a	-0.03430561
139	0x3d48ef12	0.04905612
140	0x3d88c1f3	0.06677618
141	0xbd6ab07d	-0.05729722
142	0xbd755c58	-0.05990252
143	0xbd1900a0	-0.03735411
144	0xbd37b0e4	-0.04484643
145	0x3d365cdc	0.04452215
146	0x3d38d297	0.04512271
147	0x3c8be388	0.017076269
148	0x3caa9ff6	0.020828228
149	0x3d6d6d6b	0.057965677
150	0x3d811cec	0.063043445
151	0x3ae08d15	0.001713189
152	0xbc2e7b23	-0.010649475
153	0xbcebad1a	-0.028769065
154	0x3d6adff6	0.057342492
155	0xbd0a056c	-0.033696577
156	0xbd8bb811	-0.06822217
157	0xbd372220	-0.04471028
158	0xbd1a5a65	-0.037683863
159	0x3c5a6178	0.013328902
160	0x3d344016	0.04400643
161	0xbd34ef88	-0.044173747
162	0x3dab00d1	0.08349765
163	0x3c89bc18	0.016813323
164	0x3cff0251	0.031129034
165	0xbb6d8de2	-0.0036247899
166	0xbda7fdd1	-0.082027085
167	0x3cf752c8	0.03019084
168	0x3da2d8de	0.079515204
169	0xbdbe8fa3	-0.0930474
170	0x3cfc2034	0.030777074
171	0x3d31ac27	0.043377068
172	0x3c317ddd	0.010833231
173	0xbbccc60a	-0.006249194
174	0x3ca3f6fa	0.020015229
175	0x3d9d5351	0.07681907
176	0x3db790d9	0.089631744
177	0x3b990fa2	0.004671053
178	0x3df3dd3d	0.11907432
179	0x3d8abb90	0.06774056
180	0xbd603de4	-0.054746523
181	0x3d2dcbbf	0.042430636
182	0x3bd559e1	0.0065109585
183	0x3c14e4da	0.009087766
184	0x3bc7f461	0.0061021303
185	0xbd8fef32	-0.07028045
186	0x3ce204a0	0.027590096
187	0xbb153bb4	-0.0022771182
188	0x3d42a7d0	0.04752332
189	0x3d9e9d39	0.077448316
190	0x3dfaa676	0.12238781
191	0x3d026ade	0.031840198
192	0x3c016475	0.007897486
193	0xbcb8e0dc	-0.022568159
194	0xbd394fd7	-0.045242157
195	0xbd576a6a	-0.05259172
196	0xbd68dad0	-0.0568493
197	0x3d1b0a9c	0.037851915
198	0xbd41aadc	-0.047282085
199	0xbbcee9d6	-0.0063144965
200	0xbd78b92f	-0.06072348
201	0xbdbdad41	-0.09261561
202	0x3d9867ae	0.0744165
203	0xbda4c624	-0.08045605
204	0xbc05fe1c	-0.00817826
205	0x3bd792b6	0.0065787686
206	0x3cd8a098	0.026443765
207	0x3cc59611	0.024119409
208	0xbd2432e9	-0.040087614
209	0x3d4f38e1	0.050591353
210	0xbda8f677	-0.082501344
211	0x3c51d24a	0.0128064845
212	0xbd14320e	-0.03618055
213	0xbd907069	-0.070526905
214	0xbd0f2716	-0.034949385
215	0x3d4366ff	0.047705647
216	0x3bd2b536	0.0064302934
217	0x3d88d18b	0.06680592
218	0x3d7b7e01	0.061399464
219	0x3a52da4d	0.00080433936
220	0xbcd66433	-0.026170826
221	0x3c3f3cec	0.01167224
222	0xbc620779	-0.013795727
223	0x3bbf6ae1	0.0058415984
224	0x3d24a6d6	0.04019817
225	0x3d323264	0.043505087
226	0x3d414f7a	0.047194935
227	0xbd814dcc	-0.06313667
228	0xbd7949f2	-0.060861535
229	0x3d0d8c25	0.03455748
230	0xbe06e3f9	-0.13172902
231	0x3d4a6909	0.049416576
232	0x3db00e4f	0.08596479
233	0xbcd1799e	-0.025570687
234	0xbd3080d4	-0.04309161
235	0xbd59d9a9	-0.053186093
236	0x3a226d61	0.00061961083
237	0x3d934503	0.07190897
238	0xbce79e88	-0.028273836
239	0xbdb3718b	-0.08761891
240	0xbcc18992	-0.023625169
241	0x3d8c9101	0.06863595
242	0xbd170779	-0.03687236
243	0x3cb85f2f	0.022506325
244	0x3d2514ff	0.040303227
245	0xbd311889	-0.04323629
246	0x3d0ac591	0.03387982
247	0x3d83bda2	0.06432654
248	0xbd3a4570	-0.045476377
249	0xbd792eec	-0.060835764
250	0xbd1a1cee	-0.037625246
251	0x3d717694	0.058950976
252	0xbd2d2b11	-0.0422774
253	0x3d8e16c6	0.069379374
254	0x3dc06d0c	0.09395799
255	0x3d7982ca	0.060915746

sequential_2/conv2d_3/Conv2D f4 [64, 3, 3, 64]
0	0xbd58aa5c	-0.052896842
1	0x3d109242	0.035295732
2	0x3db4cc59	0.08828039
3	0xbd3d9e35	-0.046293456
4	0xbdbc873f	-0.09205484
5	0xbe34b792	-0.17648152
6	0xbdfa4790	-0.12220681
7	0xbdbd7c82	-0.092522636
8	0xbd36b1e5	-0.044603247
9	0xbe06f498	-0.13179243
10	0xbd0c6f5e	-0.034285896
11	0xbd8aceeb	-0.06777748
12	0xbd9c208a	-0.07623394
13	0xbd28e490	-0.0412336
14	0xbdd7adc5	-0.10531191
15	0xbd22a468	-0.03970757
16	0xbe240cb7	-0.16020475
17	0xbd955b63	-0.07292821
18	0x3dd89b31	0.105764754
19	0xbd09253c	-0.033482775
20	0xbd64cd21	-0.05585969
21	0xbd2dcb4b	-0.042430203
22	0xbc292797	-0.01032438
23	0x3dc00de3	0.09377649
24	0xbdd1e029	-0.10247833
25	0xbcaa05a3	-0.02075464
26	0xbdbaf624	-0.09128979
27	0xbe02c6cc	-0.12771147
28	0x3c50bd90	0.012740508
29	0xbc9af238	-0.018914327
30	0xbc776e7c	-0.015102025
31	0xbbb570a5	-0.00553711
32	0x3d750f44	0.05982901
33	0xbd1dd9c6	-0.038537763
34	0xbdc0a1a7	-0.09405833
35	0xbde3753a	-0.111063436
36	0x3d90e460	0.07074809
37	0x3da469ba	0.08027978
38	0xbdf98942	-0.12184383
39	0x3d4986ea	0.04920093
40	0xbe185dd6	-0.14879546
41	0x3d5063d7	0.050876465
42	0xbc95566e	-0.01822969
43	0xba0a87b0	-0.0005284501
44	0x3c262be8	0.010142304
45	0xbe2c0807	-0.16799937
46	0xbdf61296	-0.12015264
47	0x3e14d06f	0.14532636
48	0xbd59fafe	-0.05321788
49	0x3dd5688e	0.10420333
50	0xbc5568b2	-0.01302545
51	0x3ded1f2b	0.115782104
52	0xbbf08003	-0.007339479
53	0x3c95bd97	0.01827888
54	0xbde27cbc	-0.110589474
55	0xbe0a6b9b	-0.1351761
56	0x3c513f43	0.01277143
57	0xbd868397	-0.065680675
58	0x3e106d55	0.14104207
59	0x3ba6a3b3	0.0050854324
60	0xbda1e73f	-0.07905435
61	0xbdcc4478	-0.09973997
62	0xbd8e5f68	-0.06951791
63	0x3bf41075	0.007448251
64	0xbd856b6b	-0.06514629
65	0x3cf12e8d	0.029441142
66	0x3d96cd6c	0.073634
67	0xbd4b8cfd	-0.049695004
68	0xbe0108b6	-0.12600979
69	0xbe59826f	-0.21241163
70	0x3cc85436	0.024454217
71	0xbcd0eeb8	-0.025504455
72	0xbd07e7d6	-0.03318008
73	0xbd94ca96	-0.07265203
74	0x3db18f01	0.08669854
75	0xbc97c6c4	-0.018527396
76	0x3be593a8	0.0070061274
77	0xbe35defc	-0.17760843
78	0x3bce8e28	0.0063035674
79	0xbdccbc44	-0.09996846
80	0xbcf4f60b	-0.029902479
81	0xbe5c3ba9	-0.21507134
82	0x3d979e78	0.074032724
83	0x3d2e7bb2	0.042598434
84	0x3d793041	0.060837034
85	0x3d46a1bc	0.048494086
86	0xbda4ba13	-0.08043303
87	0x3b0975c4	0.0020974735
88	0xbd8e9b07	-0.06963163
89	0x3d7211b9	0.059098933
90	0xbdb75cee	-0.08953272
91	0xbe332e4f	-0.17498134
92	0xbda5f223	-0.081028245
93	0xbda4802c	-0.08032259
94	0x3b966516	0.004589687
95	0x3ba99f94	0.005176494
96	0xbc142fda	-0.009044612
97	0xbdd1c984	-0.10243514
98	0x3c8e301c	0.017356925
99	0xbe228dc5	-0.15874393
100	0x3b7a0fbf	0.0038156358
101	0xbd513557	-0.05107626
102	0x3d23b5af	0.03996819
103	0xbc69e9b0	-0.014276907
104	0xbddd8697	-0.108166866
105	0x3d290c5f	0.041271564
106	0xbdad1042	-0.084503666
107	0x3ca7f954	0.020504631
108	0xbd622477	-0.055210557
109	0xbd1a4ba7	-0.037669804
110	0xbde867c6	-0.11347918
111	0x3daa1897	0.083054714
112	0x3c4726eb	0.012155275
113	0xbcabbdf5	-0.020964602
114	0xbdbe5dbd	-0.09295223
115	0xbca7a560	-0.0204646
116	0x3cd6b3b8	0.026208743
117	0x3de7d76e	0.11320387
118	0x3a1cd485	0.00059825956
119	0xbdd59de6	-0.10430507
120	0x3a484757	0.0007640025
121	0xbd888d96	-0.066676304
122	0x3e11426f	0.14185499
123	0x3c5bcaad	0.013415021
124	0xbd6cf98c	-0.057855174
125	0xbd8584d2	-0.06519474
126	0xbd89a2cd	-0.06720505
127	0xbd47899b	-0.048715215
128	0xbd257f83	-0.040404808
129	0x3db3486d	0.087540485
130	0x3c54efb4	0.012996603
131	0x3b0228ea	0.0019860812
132	0xbdb93705	-0.09043697
133	0xbe3f375a	-0.18673459
134	0xbda902bd	-0.082524754
135	0x3c17948c	0.009251725
136	0xbdd994d4	-0.1062409
137	0xbdedcb07	-0.1161099
138	0xbcb02fb2	-0.021507118
139	0xbdd3b8bf	-0.10337972
140	0xbda27ed0	-0.07934344
141	0xbd4a86c8	-0.049444944
142	0xbcb10a0f	-0.021611242
143	0xbd402a39	-0.046915267
144	0xbd171b9b	-0.03689156
145	0xbe452126	-0.19250926
146	0x3d02dcc0	0.031948805
147	0xbc31cf2f	-0.010852619
148	0xbc4981cc	-0.012299012
149	0x3df18a0e	0.1179391
150	0x3d19fa8f	0.037592467
151	0x3dde79d1	0.108630784
152	0xbe0db739	-0.13839425
153	0xbd06b6d8	-0.032889217
154	0xbc9ef1ac	-0.019402348
155	0xbe6d0a7e	-0.23148534
156	0xbdcf3bc0	-0.10118818
157	0xbda62eeb	-0.08114418
158	0x3abbebce	0.0014337243
159	0x3da5bf2c	0.08093104
160	0x3e03cbf5	0.12870772
161	0xbdb2fdd2	-0.08739819
162	0xbd1d8552	-0.038457222
163	0xbda00fe8	-0.07815534
164	0x3c727951	0.014799432
165	0xbd22508a	-0.03962759
166	0xbdbcc601	-0.09217454
167	0xba53f5ea	-0.0008085655
168	0xbca2f0c5	-0.019890198
169	0x38e37166	0.000108453256
170	0x3b06a6cc	0.0020546196
171	0x3cc1e5db	0.023669174
172	0x3d3452cf	0.044024285
173	0xbdb42c66	-0.08797531
174	0xbd04b290	-0.032396853
175	0x3e14aae0	0.14518309
176	0xbd8943ad	-0.06702361
177	0xbaccc630	-0.0015623029
178	0xbdecc98e	-0.11561881
179	0x3db01869	0.08598406
180	0x3d909c17	0.07061022
181	0x3d9fcabc	0.078023404
182	0xbd46c51f	-0.048527833
183	0xbd6a7e29	-0.057249222
184	0x3c8409fe	0.016118046
185	0xbc95de07	-0.018294347
186	0x3d45de5f	0.048307773
187	0xbdad6fb9	-0.08468575
188	0xbd884e93	-0.06655612
189	0xbd85d569	-0.065348454
190	0xbdb38174	-0.087649256
191	0x3c39fd98	0.011351965
192	0x3d8e1b5d	0.06938813
193	0x3cac19cd	0.021008397
194	0x3d75d63a	0.060018755
195	0x3cef57d2	0.02921668
196	0xbd609bd3	-0.054836106
197	0xbdaff178	-0.085909784
198	0x3b797b6a	0.0038067945
199	0xbab67ab7	-0.001392207
200	0xbe03079b	-0.1279587
201	0xbdb5a4e3	-0.0886934
202	0x3d887b45	0.06664137
203	0xbddb8a70	-0.10719764
204	0xbd8a6f95	-0.06759564
205	0xbdb11bd0	-0.08647883
206	0xbdd06e8d	-0.10177336
207	0xbca7fc98	-0.020506188
208	0xbe2d88c0	-0.16946697
209	0xbe04037c	-0.12891954
210	0x3e13fb25	0.14451273
211	0xbc9320e6	-0.017960023
212	0x3d52ad63	0.051434886
213	0xbd72ff04	-0.059325233
214	0x3b39bc5d	0.0028341033
215	0x3e05f2ff	0.13080977
216	0xbe3347cd	-0.17507859
217	0xbcbb69c6	-0.022877585
218	0x3dbae0db	0.09124919
219	0xbe16da68	-0.14731753
220	0x3cea852a	0.02862795
221	0xbd723a40	-0.059137583
222	0xbd1f64e0	-0.03891456
223	0xbcb579ec	-0.022152863
224	0x3c894392	0.016755853
225	0xbdfa97b6	-0.12235968
226	0x3d6fcaa4	0.058542863
227	0xbde7fe10	-0.113277555
228	0xbd0c997a	-0.034326054
229	0x3dcb18eb	0.09916862
230	0xbbfb9e7f	-0.0076788063
231	0xbcb2bf18	-0.021819636
232	0xbda3df07	-0.080015235
233	0x3c674b4c	0.014117073
234	0x3cd4f52d	0.025995815
235	0xbc35e9d9	-0.011103117
236	0x3d380c9a	0.044933893
237	0xbd458139	-0.04821894
238	0xbd9a8f7b	-0.07546898
239	0x3e2dc723	0.16970496
240	0xbd891ab6	-0.06694548
241	0x3d91eae7	0.07124882
242	0xbc7309ac	-0.014833849
243	0x3d976d61	0.07393909
244	0x3cfb367e	0.030665632
245	0x3dd4d33a	0.10391851
246	0xbd0f967a	-0.035055615
247	0xbe12018f	-0.14258407
248	0x3decccec	0.11562523
249	0xbdadab86	-0.08479981
250	0x3e687f9d	0.2270493
251	0x3caa8c95	0.020818988
252	0xbb928888	-0.004471842
253	0x3d01e71a	0.031714536
254	0xbe13aa70	-0.14420485
255	0x3c9f15f5	0.01941965

sequential_2/conv2d_4/Conv2D f4 [64, 3, 3, 64]
0	0x3d9c3ad4	0.07628408
1	0x3d32123d	0.043474425
2	0xbd8b2343	-0.06793835
3	0xbd9046a2	-0.07044722
4	0xbdb504c0	-0.088387966
5	0x3ccc1a87	0.024914993
6	0x3d576b6a	0.052592672
7	0xbd33441f	-0.043766137
8	0x3d978264	0.07397917
9	0x3cd79b25	0.026319096
10	0xbc6caf80	-0.014446139
11	0x3de73a40	0.11290407
12	0x3cb30a13	0.02185539
13	0xbd79199f	-0.06081545
14	0xbdf074c6	-0.11741023
15	0xbce48557	-0.027895613
16	0xbd3b9aa8	-0.04580179
17	0xbdde9324	-0.108679086
18	0xbded40d6	-0.11584632
19	0xbd8d958c	-0.069132894
20	0x3ca3016e	0.019898143
21	0xbd2818f3	-0.04103942
22	0x3cf2ffe7	0.02966304
23	0xbc4336f0	-0.011914954
24	0xbd2f28d6	-0.042763554
25	0x3b0a48ae	0.002110045
26	0xbdc22492	-0.094796315
27	0xbcca1d16	-0.024672072
28	0x3ccf5f24	0.025313921
29	0x3d00dd60	0.03146112
30	0xbd70d82d	-0.05879991
31	0x3d730be9	0.05933753
32	0xbc6f8957	-0.014620147
33	0x3d8a0284	0.06738761
34	0xbc9d2000	-0.019180298
35	0xbc4b5f1e	-0.012412814
36	0xbce9adf3	-0.028525328
37	0x3bd8765a	0.0066059055
38	0xbd2c7b1b	-0.04210959
39	0xbd819504	-0.063272506
40	0x3c303d16	0.0107567515
41	0xbdad0d19	-0.08449764
42	0xbd35205d	-0.044220317
43	0x3d847e9f	0.064694636
44	0x3dfb0015	0.12255875
45	0xbd9e735c	-0.07736847
46	0xbcade794	-0.02122859
47	0x3d422ba9	0.04740492
48	0x3c46521d	0.012104538
49	0x3b887d3f	0.004165321
50	0x3d01341c	0.031543836
51	0xbcd0039f	-0.025392352
52	0x3befe45b	0.0073209233
53	0xbd045c77	-0.032314744
54	0x3c8827e5	0.016620586
55	0xba5a02eb	-0.0008316475
56	0xbc4c9b9e	-0.012488274
57	0xbcd8e3c8	-0.026475802
58	0xbd2f728b	-0.042833846
59	0x3d5cf66c	0.053945944
60	0x3d90d0d8	0.07071084
61	0xbbeb9d3e	-0.0071903756
62	0xbd8efc17	-0.06981676
63	0xbd87eee7	-0.06637364
64	0x3cc3b0a7	0.023887945
65	0x3c1ac5f9	0.009446614
66	0xbc1581b5	-0.009125163
67	0xbd091ee5	-0.03347673
68	0x3c8033cb	0.015649697
69	0xbd032998	-0.03202209
70	0xbdaf3342	-0.085546985
71	0xbd88c6bd	-0.06678531
72	0x3dfe1135	0.12405626
73	0x3cc0047e	0.023439642
74	0xbd407031	-0.046981994
75	0x3d42e717	0.047583666
76	0x3d1d5d8d	0.038419295
77	0x3d206c69	0.039165888
78	0x3cfb58d0	0.030681998
79	0x3d1fe1cb	0.039033692
80	0x3c2ea202	0.010658743
81	0x3d05b9a5	0.032647748
82	0xbdc10667	-0.09425049
83	0xbd926c68	-0.07149583
84	0xbd947cdc	-0.072503775
85	0xbcf973a5	-0.030450651
86	0xbcfba0c8	-0.030716315
87	0xbd4748f6	-0.048653565
88	0x3d3a9d72	0.045560308
89	0xbdac2f46	-0.08407454
90	0xbccb9b7d	-0.024854416
91	0xbd518bb0	-0.051158607
92	0x3bb24ad6	0.00544105
93	0x3dada14b	0.0847803
94	0xbce61cba	-0.02808987
95	0x3e07a1e0	0.13245344
96	0x3c028db8	0.007968359
97	0x3d64dbb5	0.05587359
98	0xbd9aa853	-0.075516365
99	0xbc90589f	-0.017620383
100	0x3c29877f	0.010347246
101	0xbc3d9a58	-0.011572443
102	0xbd107d7a	-0.035275914
103	0xbc97dbcb	-0.018537423
104	0x3d79f897	0.06102809
105	0x3ccdb9b5	0.025112966
106	0x3d011d5c	0.03152214
107	0x3d877310	0.06613743
108	0x3d12da93	0.03585298
109	0xbd2ab8b1	-0.04168004
110	0xbd6fae1c	-0.058515653
111	0xbd1b68e0	-0.037941813
112	0xbc043edf	-0.00807163
113	0x3d03f7fa	0.03221891
114	0xbcaa3219	-0.020775842
115	0xbd2e496b	-0.042550486
116	0x3bc2e31c	0.0059474837
117	0x3d8d54f4	0.06900969
118	0xbd64a2b4	-0.05581923
119	0xbd96ccd3	-0.07363286
120	0x3d92d660	0.07169795
121	0x3cedf34c	0.029046677
122	0xbd60f434	-0.05492039
123	0xbd52c3ac	-0.05145614
124	0xbb778f8d	-0.0037774772
125	0xbc5e8f7e	-0.013584016
126	0x3b1a964a	0.0023588114
127	0x3d67a846	0.056556962
128	0x3e12f5da	0.14351597
129	0xbd78cf8b	-0.060744803
130	0x3d15411a	0.03643904
131	0x3b5c5621	0.0033620673
132	0x3ad575d3	0.0016285725
133	0x3c78d2e0	0.015186995
134	0xbd42541d	-0.047443498
135	0x3d499566	0.049214743
136	0x3d2e6298	0.042574495
137	0x3d4fb0b3	0.050705623
138	0xbda43eec	-0.08019814
139	0x3d5ab9b5	0.05339976
140	0x3d4de364	0.050265685
141	0xbd16a056	-0.036774002
142	0x3c20b4df	0.009808748
143	0xbd01551c	-0.031575307
144	0x3c81fd70	0.015867919
145	0x3d80088b	0.062516294
146	0xbda5c1c9	-0.08093602
147	0x3b6110a1	0.0034342187
148	0xbc16b8fa	-0.009199375
149	0x3d303e64	0.04302825
150	0x3d8d3cb8	0.06896347
151	0x3cf88e74	0.030341364
152	0x3d29b585	0.041432876
153	0xbd8f32ea	-0.06992133
154	0x3d5bdb75	0.053676087
155	0x3d613cdf	0.05498969
156	0xbd031d31	-0.03201026
157	0x3da35dbe	0.07976864
158	0xbb966245	-0.0045893514
159	0x3d38cf17	0.04511937
160	0xbd4b6edf	-0.04966628
161	0xbd46dfac	-0.048553154
162	0x3cf56e87	0.02995993
163	0xbc6a816b	-0.014313082
164	0xbd62f3b3	-0.05540819
165	0x3a9ed223	0.0012117069
166	0x3d959aac	0.07304892
167	0xbdcec09b	-0.1009533
168	0x3d820d30	0.063501716
169	0xbd408d24	-0.047009602
170	0xbd190b92	-0.03736455
171	0xbc69353b	-0.014233883
172	0x3c69cee1	0.014270515
173	0xbdae7632	-0.08518638
174	0xbd82b3e0	-0.06381965
175	0x3d627f37	0.055297103
176	0xbda293ed	-0.07938371
177	0x3d8fdcde	0.07024549
178	0xbc4360dc	-0.011924949
179	0x3d2ceb83	0.04221679
180	0x3d86d0a1	0.065827616
181	0xbc63be37	-0.013900331
182	0xbd84adf7	-0.06478494
183	0xbcac63c7	-0.021043671
184	0x3d95ec4c	0.07320461
185	0x3cdcfab4	0.026975013
186	0x3d6db12e	0.0580303
187	0x3d28f330	0.041247547
188	0x3dc7dfee	0.09759508
189	0xbc3e2f2b	-0.011607925
190	0xbd1ea1b5	-0.038728435
191	0xba1d5065	-0.00060010544
192	0xbd13a4c5	-0.03604581
193	0xbd56bcae	-0.052426033
194	0xbde7fa7c	-0.11327073
195	0x3d39d7fc	0.045371994
196	0xbd059cd9	-0.032620285
197	0x3d218bf0	0.039440095
198	0xbd96cfe2	-0.07363869
199	0xbdcd4ce0	-0.10024428
200	0x3cf0ce08	0.029395118
201	0x3cf5c954	0.030003227
202	0xbd8cfb53	-0.06883874
203	0xbdbbfd82	-0.09179212
204	0x3cde311e	0.02712303
205	0x3ce28a39	0.0276538
206	0x3caae7cd	0.020862484
207	0x3bcfff04	0.006347539
208	0x3c453fb7	0.012039117
209	0x3d8bda1c	0.068287104
210	0xbd0bdb22	-0.03414453
211	0xbb8a75c8	-0.0042254664
212	0xbdba9b71	-0.09111679
213	0xbd90959f	-0.07059788
214	0x3d0b2207	0.033967998
215	0xbd92ad22	-0.07161929
216	0x3b71d524	0.0036900723
217	0xbceff468	-0.029291347
218	0x3d0aa1bf	0.03384566
219	0xbd3de181	-0.046357635
220	0xbd187c1b	-0.03722773
221	0xbd9426b5	-0.07233945
222	0xbca0aee8	-0.019614652
223	0xbc65ad02	-0.014018299
224	0x3d230785	0.039802093
225	0x3d3f7bd6	0.04674896
226	0xbd18a425	-0.037265915
227	0x3c06c2f6	0.008225193
228	0xbd628e2e	-0.055311374
229	0xbdbeeb17	-0.093221836
230	0xbdb8ae57	-0.09017628
231	0xbc99db1e	-0.018781241
232	0xbd344d95	-0.0440193
233	0xbc87d826	-0.01658256
234	0x3adc12e3	0.0016790297
235	0xbca055ce	-0.019572165
236	0x3e00e351	0.12586714
237	0xbce257ab	-0.027629694
238	0xbdbcd957	-0.09221142
239	0x3d28a8fa	0.041176774
240	0x3c0bdaaf	0.008536025
241	0xbd048fcc	-0.032363698
242	0xbd7f45d8	-0.062322468
243	0x3d4f7f4d	0.050658513
244	0xbd7c4fea	-0.06159965
245	0x3c1b1056	0.009464344
246	0xbd8abb3b	-0.06773993
247	0xbd70d2b3	-0.05879469
248	0xbcb793c4	-0.022409327
249	0xbc61c30e	-0.013779415
250	0x3d29e52f	0.041478332
251	0xbd842505	-0.064523734
252	0xbc0113f7	-0.007878295
253	0xbd8be556	-0.06830852
254	0xb8c6f7cb	-9.487531e-05
255	0xbd726522	-0.05917848
