assets/tflite/wheatdisease.tflite (tflite, 742604 bytes, 16 tensors)

sequential_2/conv2d/Relu;sequential_2/conv2d/BiasAdd;sequential_2/conv2d/Conv2D;sequential_2/conv2d/BiasAdd/ReadVariableOp f4 [32, 3, 3, 3]
0	0x390919b0	0.00013074907
1	0xb9e141fa	-0.000429645
2	0xba25f3ac	-0.00063305604
3	0x393f20b1	0.00018227358
4	0x395441db	0.00020242429
5	0x39fbacc7	0.0004800318
6	0x39426f85	0.00018542826
7	0xba02e3e3	-0.0004993064
8	0xba2512a1	-0.00062970264
9	0x39019976	0.00012359567
10	0x3a194eb5	0.0005848215
11	0xb9f4ea2b	-0.00046713775
12	0x3a06bfce	0.00051402755
13	0xb8fae77f	-0.000119640485
14	0x3a04539e	0.00050478603
15	0x382d95e2	4.1386003e-05
16	0x395dff76	0.00021171369
17	0x3a315675	0.0006764897
18	0xb78fb607	-1.7131691e-05
19	0x38c1d25c	9.24214e-05
20	0xb98509e4	-0.00025375106
21	0xba0c0789	-0.0005341699
22	0xb937dd15	-0.000175346
23	0xb8ca9cea	-9.661338e-05
24	0xb93c3146	-0.00017947433
25	0x39b6f187	0.00034893697
26	0xb9c2defd	-0.00037168703
27	0x38cd9730	9.8033226e-05
28	0xb9c0ba3c	-0.0003675985
29	0xb92e10ce	-0.00016600193
30	0xb99d4606	-0.00029997545
31	0x38d55fba	0.00010174462
32	0xba382716	-0.0007024867
33	0x39fb22ef	0.00047900478
34	0x3a1f74ba	0.0006082762
35	0x39ab5bd1	0.0003268407
36	0xb9bec21d	-0.0003638425
37	0xb92561cc	-0.00015772058
38	0xba74c872	-0.000933773
39	0xb9854635	-0.00025420045
40	0xb8d2fc37	-0.00010060559
41	0xba86fc65	-0.0010298608
42	0x394414a2	0.00018699703
43	0xb8945349	-7.072703e-05
44	0x395d6184	0.0002111253
45	0xb99d31e3	-0.00029982542
46	0xb88ac3ef	-6.616848e-05
47	0xba70d4e0	-0.0009186994
48	0xb9b5fce0	-0.00034711417
49	0x39f9ed3c	0.00047669734
50	0xba23767f	-0.0006235614
51	0xb928ef7e	-0.00016110946
52	0xb9a57a8c	-0.00031562557
53	0xb9a51e95	-0.00031494038
54	0x3955c6bf	0.00020387302
55	0xb904d144	-0.00012666458
56	0xba00dc1e	-0.00049156125
57	0x397d4035	0.00024151879
58	0x3a14593a	0.0005659048
59	0xb9344979	-0.00017193508
60	0xba3183e5	-0.0006771668
61	0x38f1a2e2	0.00011522115
62	0xb9914b15	-0.00027712496
63	0xba2ba953	-0.00065483636
64	0xb9e8b0cf	-0.0004438222
65	0x395122ae	0.00019944712
66	0xb9ad4ad7	-0.0003305289
67	0x39ed561e	0.00045268325
68	0xb99be9d3	-0.00029738116
69	0x3995f8fa	0.00028604997
70	0x39cc219a	0.00038934947
71	0x39a828d5	0.0003207388
72	0x38fe4dfe	0.00012126191
73	0x39e2240f	0.00043132945
74	0x39233047	0.00015562876
75	0xb9c12206	-0.00036837178
76	0x39b63537	0.00034753393
77	0x3993d5ca	0.0002819731
78	0xba1c78b4	-0.0005968914
79	0x3a0e18d1	0.0005420568
80	0xb9c422f9	-0.0003741009
81	0xba18c006	-0.00058269536
82	0x38ea3506	0.00011167866
83	0x3952e564	0.00020112615
84	0xba0e4a11	-0.0005427907
85	0xb92c8d9c	-0.00016455952
86	0xb79bf6bc	-1.8592335e-05
87	0x3a10c338	0.0005522254
88	0x39bc5913	0.0003592452
89	0x3873709c	5.804059e-05
90	0xba27761d	-0.00063881447
91	0xba0f43d8	-0.00054651266
92	0xba258d8a	-0.00063153415
93	0x3707b82f	8.089511e-06
94	0xb9d8854d	-0.00041298047
95	0x388e54b2	6.7868634e-05
96	0xb8fd3b47	-0.000120750214
97	0xb7c9f91d	-2.407707e-05
98	0xb85715e6	-5.128039e-05
99	0xb9f30840	-0.00046354719
100	0xba28efe4	-0.0006444438
101	0x398f8c3c	0.00027379568
102	0xba086fb5	-0.0005204634
103	0x39790802	0.00023749474
104	0x3961daa0	0.00021539116
105	0x3a29f7d0	0.00064837653
106	0xb888ce4f	-6.523413e-05
107	0xb8c254cb	-9.266435e-05
108	0xb9e82eb9	-0.000442853
109	0xb89274d8	-6.983586e-05
110	0xb8a36336	-7.790925e-05
111	0xb913630d	-0.00014055912
112	0x38dff4b0	0.00010679045
113	0xba2194a5	-0.00061638124
114	0xb8ffc045	-0.000121951605
115	0xba2394f8	-0.00062401546
116	0xb900872f	-0.00012257391
117	0x398e13f1	0.00027099208
118	0xba179f2f	-0.0005783913
119	0xb9cdd8da	-0.00039262214
120	0xb8c48fb5	-9.372776e-05
121	0x3932ee11	0.0001706409
122	0xb9122da9	-0.00013940655
123	0x39ddd22d	0.00042308998
124	0xba1e4411	-0.00060373644
125	0xba28fe82	-0.0006446616
126	0x39d43163	0.00040472587
127	0x3a26eab1	0.0006367369
128	0x3a266185	0.0006346929
129	0xb798eda3	-1.823047e-05
130	0xb9005801	-0.00012239815
131	0x3a47a094	0.00076151756
132	0x39863b19	0.00025602503
133	0x39d68ff9	0.0004092453
134	0x39309ed8	0.00016843842
135	0xb9921f4a	-0.00027870602
136	0xb973de47	-0.0002325709
137	0xb92b9bb3	-0.00016365833
138	0x38606923	5.3503678e-05
139	0x39277965	0.00015971584
140	0xba1814af	-0.0005801422
141	0x3905f848	0.0001277636
142	0xb9fa9814	-0.00047797023
143	0x38ad63ef	8.267897e-05
144	0xb99a70bc	-0.00029457163
145	0x3966ea4d	0.00022021793
146	0xb820cdee	-3.833876e-05
147	0xb9cc39c7	-0.0003895296
148	0x39d00336	0.00039675244
149	0x399f053b	0.0003033074
150	0xba078b91	-0.00051706383
151	0x3937d646	0.00017532063
152	0x38df10a7	0.000106365704
153	0xb8bb430b	-8.9293426e-05
154	0xb985b739	-0.00025504248
155	0x37ce1056	2.456472e-05
156	0x39bb66b3	0.00035743936
157	0xb7a35ee5	-1.9475303e-05
158	0xba0b1b44	-0.0005306492
159	0x3a12076b	0.00055705634
160	0xb9bf792e	-0.00036520645
161	0xba4c0ba0	-0.00077837147
162	0xb870788c	-5.7332727e-05
163	0x39148e80	0.00014167465
164	0x391ffe73	0.00015258211
165	0x3a0ce8e9	0.00053752825
166	0xba191e72	-0.00058410235
167	0x394fe492	0.00019826207
168	0x3987d217	0.00025905736
169	0xb90d3385	-0.00013466
170	0x3a2f7a83	0.0006693976
171	0xb820cfd0	-3.8340513e-05
172	0xb9becb9e	-0.0003639133
173	0xb9db3b30	-0.00041815033
174	0x3a03952e	0.0005019483
175	0x39365e16	0.00017391922
176	0x3a38cbb1	0.00070493954
177	0x3923e04b	0.00015628447
178	0xb9ce43c8	-0.00039341883
179	0x3926dad9	0.00015912521
180	0xba010942	-0.0004922339
181	0xb9ef9317	-0.00045695223
182	0x38f78caa	0.000118040785
183	0x39b754dd	0.00034967708
184	0xba1b5896	-0.0005925981
185	0x39f6d22c	0.00047077367
186	0xb9f119f0	-0.00045986427
187	0xb8cb2c2b	-9.688021e-05
188	0x39e50d7b	0.00043688327
189	0xba4506df	-0.00075159775
190	0xba0ef398	-0.00054531684
191	0xb997740f	-0.00028887435
192	0x393d1185	0.00018030971
193	0x38a1d794	7.717233e-05
194	0xb8fffdd1	-0.000122066245
195	0x3846514d	4.7282596e-05
196	0xba3d7a6a	-0.0007228019
197	0xb93fa660	-0.00018277159
198	0xba2a46e3	-0.00064955483
199	0xb9852cb7	-0.00025401052
200	0x3a2ed4c1	0.0006669276
201	0xb959e11d	-0.00020778594
202	0xb9322f12	-0.00016992938
203	0xb9a85f60	-0.00032114517
204	0xba4a08a9	-0.0007706979
205	0xb9e8bceb	-0.00044391243
206	0x39b92c04	0.00035318744
207	0xba050e49	-0.0005075676
208	0xba47795f	-0.0007609333
209	0xb7637122	-1.3556595e-05
210	0xba3a3792	-0.00071036175
211	0x364da1ad	3.0641488e-06
212	0x39ea2276	0.00044657633
213	0x38936318	7.027964e-05
214	0x3a1e9051	0.00060487265
215	0x3a024cc8	0.0004970548
216	0xb989a3ad	-0.00026252624
217	0x39e33276	0.0004333441
218	0x39579d35	0.00020562562
219	0xb79705d4	-1.8003317e-05
220	0xb9e666e9	-0.00043945693
221	0xb9b05939	-0.00033635812
222	0xb93f5aad	-0.00018248959
223	0x399cdafb	0.00029917792
224	0xb843297b	-4.6530255e-05
225	0x3a2a5bed	0.00064986834
226	0x390cf678	0.00013443257
227	0x3a0d30e6	0.00053860096
228	0x3806dde5	3.2154745e-05
229	0xba124b01	-0.00055806345
230	0xb9b0e7cc	-0.00033742038
231	0xb9243d81	-0.00015663171
232	0x37d12660	2.4932611e-05
233	0x387f195e	6.0820363e-05
234	0xb787fc01	-1.6210603e-05
235	0x397b35f8	0.0002395733
236	0xb98b4f92	-0.0002657143
237	0xb956cb4d	-0.00020484366
238	0xb9df94fe	-0.00042644882
239	0xb9cd5b4f	-0.00039168677
240	0x3986232d	0.0002558468
241	0x397beb5e	0.00024024906
242	0x3a13ead7	0.0005642599
243	0xb8b826ce	-8.781032e-05
244	0x39d825b7	0.0004122683
245	0xb89373ed	-7.031099e-05
246	0x3a00ab65	0.0004908352
247	0x39bccc7d	0.0003601051
248	0x3a220053	0.0006179858
249	0xba1513d5	-0.0005686854
250	0xb88d625a	-6.741723e-05
251	0xb97ee85c	-0.00024309888
252	0xba0042be	-0.0004892758
253	0x382c3c4b	4.1064148e-05
254	0x3937715f	0.00017494474
255	0xba06e68f	-0.000514605

sequential_2/conv2d/BiasAdd/ReadVariableOp f4 [32]
0	0xbc38fc0e	-0.011290563
1	0x3d9e2296	0.077214405
2	0xbd15565b	-0.036459308
3	0x3d62d7e0	0.055381656
4	0x3b820125	0.0039674216
5	0xbd480435	-0.048832137
6	0xbd5bc29d	-0.053652395
7	0x3dcbaa0f	0.099445455
8	0xbc3c764b	-0.011502813
9	0x3d0f4812	0.03498084
10	0xbd2babaf	-0.041911777
11	0xbdbe649f	-0.09296536
12	0xbe0923e9	-0.13392605
13	0x3c93089e	0.017948445
14	0xbda1980d	-0.078903295
15	0x3c110743	0.008851829
16	0x3c0b55d8	0.008504353
17	0xbc56c011	-0.013107316
18	0xbc6b51fe	-0.01436281
19	0xbc867928	-0.016415194
20	0xbdf7e94b	-0.12105044
21	0xbcaa2e17	-0.02077393
22	0x3db56fae	0.08859192
23	0xbc9eb3a2	-0.019372765
24	0xbd5a49bc	-0.053292975
25	0x3cd786b0	0.026309341
26	0xbcdad9af	-0.026715128
27	0xbd5db5d6	-0.05412849
28	0x3cf0e1be	0.029404517
29	0xbd552a9c	-0.05204259
30	0x3cd695e1	0.026194515
31	0x3cb01f16	0.021499198

sequential_2/conv2d_1/BiasAdd/ReadVariableOp f4 [64]
0	0xbbb0923c	-0.0053885262
1	0x3cdb96fc	0.026805393
2	0xbca3fe1d	-0.020018632
3	0xbd8bbb18	-0.06822795
4	0xbdb85ab1	-0.09001673
5	0x3ca7cd09	0.02048351
6	0x3c9802c4	0.018556006
7	0xbc515b12	-0.0127780605
8	0xbdc421ef	-0.09576785
9	0xbd449a29	-0.04799858
10	0xbd8f7899	-0.07005424
11	0xbd0f5ab4	-0.03499861
12	0xbc127bc0	-0.008940637
13	0xbce96bf1	-0.028493853
14	0x3b9d01c4	0.0047914702
15	0x3d41c4d3	0.047306847
16	0x3d25b130	0.040452182
17	0x3d4f25dc	0.050573215
18	0x3ac17ed9	0.0014762535
19	0xbd05ea64	-0.032694235
20	0x3d7a9bf1	0.061183874
21	0xbd1acbe2	-0.037792094
22	0xbd88d7f9	-0.066818185
23	0xbd964968	-0.0733822
24	0xbd53e93c	-0.0517361
25	0xbd5fdb9e	-0.054652803
26	0xbdbaf5a4	-0.091288835
27	0x3ca7ca31	0.020482155
28	0x3cd97380	0.026544333
29	0xbd1085a5	-0.035283703
30	0xbc4f2b16	-0.01264455
31	0x3d503d84	0.050839916
32	0xbd3e67b4	-0.046485618
33	0xbd70b659	-0.05876765
34	0xbd9f02ed	-0.0776423
35	0xbc0d72ba	-0.00863331
36	0xbd8af06a	-0.067841366
37	0xbd805746	-0.06266646
38	0x3c21a676	0.009866348
39	0xbd26da15	-0.040735323
40	0xbd325cdf	-0.0435456
41	0xbd866bf6	-0.06563561
42	0xbd1dc577	-0.038518395
43	0xbb5697dd	-0.0032744326
44	0xbc8f5417	-0.017496152
45	0xbc76bcc3	-0.015059653
46	0xbd90f82b	-0.07078584
47	0xbd73f1a3	-0.059556615
48	0x3c20d205	0.009815698
49	0xbd9b17d7	-0.075729065
50	0xbc9f5ad3	-0.019452488
51	0xbdd63f16	-0.104612514
52	0x3cc94dae	0.024573173
53	0xbd083b85	-0.033259887
54	0xbd4e0f2b	-0.050307434
55	0xbccc0e4e	-0.024909165
56	0xbd7c715d	-0.06163155
57	0x3a9d7417	0.0012012747
58	0xbd258172	-0.04040665
59	0x3c2bae38	0.010478549
60	0x3d7fda0f	0.062463816
61	0xbc3ca218	-0.011513256
62	0x3ba4bbeb	0.0050272844
63	0xbd63ffac	-0.05566375

sequential_2/conv2d_2/BiasAdd/ReadVariableOp f4 [64]
0	0xbd9ee70d	-0.07758913
1	0xbd08b7e8	-0.03337851
2	0xbe172a7c	-0.147623
3	0xbcd15f92	-0.025558267
4	0xbd7f2cbc	-0.06229852
5	0xbc85fd0d	-0.016356016
6	0xbd3e794d	-0.0465024
7	0xbd9ea6dc	-0.0774667
8	0xbcb5508a	-0.02213313
9	0x3cc1d527	0.02366121
10	0xbc54fee0	-0.01300022
11	0x3d0429bd	0.032266367
12	0xbcba26af	-0.022723524
13	0xbd731f1b	-0.059355836
14	0xbd478bfb	-0.04871748
15	0xbce923bd	-0.028459424
16	0xbd086712	-0.03330142
17	0xbd8febd2	-0.07027401
18	0xbdbbcbbc	-0.091697186
19	0xbd8a7fde	-0.0676267
20	0xbd400e5b	-0.04688869
21	0xbd41812e	-0.047242336
22	0x3ba6df66	0.005092549
23	0xbd14aa9a	-0.03629551
24	0xbda5a121	-0.080873735
25	0x3cb8d5b1	0.022562834
26	0xbca4bc2a	-0.020109255
27	0xbd1cac9c	-0.03825055
28	0xbda487e4	-0.080337316
29	0xbd2bf027	-0.041977074
30	0xbd48e920	-0.04905045
31	0x3c8dcf2e	0.017310705
32	0x3cd6cef9	0.02622174
33	0xbd087046	-0.033310197
34	0xbd2bd63a	-0.04195235
35	0xbd2d19d5	-0.042260963
36	0xbbb01479	-0.0053735343
37	0x3dc1cff2	0.094634905
38	0x3d584943	0.052804243
39	0xbd3153b5	-0.04329272
40	0xbca81f01	-0.020522596
41	0xbd965217	-0.07339876
42	0x3d4b65eb	0.049657743
43	0xbd10bebc	-0.03533815
44	0xbbbf6c96	-0.005841802
45	0x3d95d463	0.073159
46	0xbdceb34f	-0.10092794
47	0x3db058b8	0.08610672
48	0x3cdc29de	0.026875433
49	0xbd8fcc1f	-0.07021355
50	0xbcd0148c	-0.025400423
51	0x3bd7ce58	0.0065858774
52	0x3d137c9a	0.0360075
53	0xbb915b7a	-0.0044359537
54	0xbc6bd054	-0.014392931
55	0xbd180fd4	-0.03712447
56	0xbce036ed	-0.02736994
57	0xbda9150f	-0.0825597
58	0x3cfd8897	0.03094892
59	0xbd6ad4f0	-0.05733198
60	0xbd6bcb97	-0.057567205
61	0xbd3a1d58	-0.04543814
62	0xbc3c4857	-0.011491857
63	0xbdc5090c	-0.09620866

sequential_2/conv2d_3/BiasAdd/ReadVariableOp f4 [64]
0	0xbc8b4994	-0.017002858
1	0xbdff27de	-0.12458776
2	0xbd104439	-0.035221312
3	0x3cd20be5	0.025640437
4	0xbb84f131	-0.0040570726
5	0xbd32d64f	-0.04366141
6	0xbcf07833	-0.02935419
7	0x3b0301cb	0.0019990082
8	0xbc592bf0	-0.013255104
9	0x3df460fb	0.1193256
10	0x3d5ad59e	0.053426377
11	0xbcee2567	-0.02907057
12	0xbe0ea1fb	-0.13928978
13	0xbd0acbad	-0.033885647
14	0xbdec01ba	-0.11523767
15	0xbcfca42b	-0.03084
16	0x3de38b82	0.111105934
17	0xbd86e732	-0.06587066
18	0x3d17febd	0.03710817
19	0xbcdf3caa	-0.027250607
20	0xbcd37e48	-0.025817052
21	0x3de3065b	0.110851966
22	0x3d899101	0.067171104
23	0xbceb43c8	-0.028718844
24	0xbdb02462	-0.086006895
25	0x3d1f7fcb	0.038940232
26	0xbbbf1df5	-0.0058324286
27	0x3d23930e	0.039935164
28	0x3dad767c	0.08469865
29	0xbd130b6b	-0.03589956
30	0xbd529a2b	-0.051416557
31	0xbd81abf7	-0.06331628
32	0xbb8cb452	-0.004293957
33	0xbcee726e	-0.029107299
34	0xbd2d4cfd	-0.04230975
35	0xbcfb7c8a	-0.030699033
36	0x3cdada67	0.02671547
37	0xbd227fc8	-0.039672643
38	0xbcded03c	-0.027198903
39	0x3d659dbe	0.056058638
40	0xbd262be3	-0.040569197
41	0x3d8e0d49	0.06936128
42	0x3d9c33e9	0.076270886
43	0x3c9e4190	0.019318372
44	0xbd038997	-0.032113638
45	0x3d974432	0.07386054
46	0x3c70209e	0.014656214
47	0xbce41106	-0.027840149
48	0xbc83a691	-0.016070636
49	0xbd211c20	-0.039333463
50	0x3bbeb4a4	0.005819874
51	0x3d837b0b	0.06419953
52	0xbd10f9b7	-0.035394397
53	0x3c96f3e1	0.018426837
54	0x3d18c652	0.037298508
55	0xbc86d879	-0.016460644
56	0xbcd3ffe5	-0.025878856
57	0xbd8d6a2b	-0.069050156
58	0xbd0b9f47	-0.034087446
59	0x3cafd0d4	0.021461882
60	0xbd6dca3f	-0.058054205
61	0xbd840e50	-0.064480424
62	0xbcf33baf	-0.029691545
63	0xbcaf89fd	-0.021428103

sequential_2/conv2d_4/BiasAdd/ReadVariableOp f4 [64]
0	0x3d1fc362	0.03900469
1	0x3bf05dd5	0.0073354044
2	0x3e05aed4	0.13054973
3	0xba03f84b	-0.0005034252
4	0xbc10e899	-0.008844518
5	0xbcc1d341	-0.023660304
6	0xbd67f833	-0.056633186
7	0xbd88f8ce	-0.06688081
8	0xbc655f61	-0.013999791
9	0xbd3ab905	-0.045586605
10	0xbe3a9806	-0.18222055
11	0xbc3af2ab	-0.011410396
12	0xbc2671c2	-0.010158958
13	0xbbe68b02	-0.007035614
14	0x3db7cbbd	0.08974407
15	0xbc4f9692	-0.012670176
16	0xbc77fb6b	-0.015135626
17	0xbc67882f	-0.01413159
18	0xbcda8104	-0.026672848
19	0x3de0b0a0	0.109711885
20	0x3e1d0833	0.15335159
21	0xbca5a83c	-0.020221822
22	0xbc35a6e7	-0.011087156
23	0xbd4b899a	-0.049691774
24	0x3d324ae5	0.043528456
25	0x3d2bd491	0.041950766
26	0xbc477977	-0.012174956
27	0x3ba26bb6	0.004956688
28	0x3daf7ce7	0.08568745
29	0x3cf26453	0.029588854
30	0xbc2becbc	-0.010493454
31	0x3de66b70	0.11250961
32	0xbcfb54b6	-0.030680042
33	0x3deda84e	0.11604367
34	0x3d43fd0a	0.04784874
35	0x3c12dad0	0.008963302
36	0x3c4c2858	0.012460791
37	0x3d2a1382	0.04152251
38	0xbc7b20ee	-0.015327675
39	0xbc8d9826	-0.017284464
40	0x3be6d458	0.0070443563
41	0xbce1dd2f	-0.027571289
42	0xbb91799f	-0.004439547
43	0xbd27bfc0	-0.04095435
44	0xbd8f1521	-0.06986452
45	0xbc9fdec9	-0.019515412
46	0x3cb3419b	0.021881869
47	0xbd4a1dc7	-0.049344804
48	0x3d8b3aa0	0.06798291
49	0xbd0be17a	-0.034150578
50	0x3d5a1646	0.053243898
51	0xbd628053	-0.05529816
52	0xbdac87c8	-0.08424336
53	0x3e1008e9	0.14065899
54	0xbd205caf	-0.03915089
55	0xbbd1b991	-0.006400295
56	0x3d2980e0	0.04138267
57	0x3d02b847	0.03191402
58	0x3d54dd75	0.05196901
59	0x3d9c93b9	0.07645363
60	0xbcf63005	-0.030052194
61	0x3db4a3cc	0.08820304
62	0xbddc398d	-0.107531644
63	0x3c820d70	0.015875548

sequential_2/conv2d_5/BiasAdd/ReadVariableOp f4 [64]
0	0x3d173991	0.036920134
1	0x3afd60b8	0.0019331193
2	0xbc3ebbaa	-0.011641422
3	0xbd27447e	-0.040836804
4	0x3cd80534	0.026369669
5	0x3c4cba06	0.012495523
6	0x3df28098	0.118409336
7	0xbc8eb445	-0.017419944
8	0x3d25351b	0.04033385
9	0x3c1510b2	0.009098219
10	0xbbb5e1ce	-0.0055505997
11	0xbc6870b4	-0.014187027
12	0xbbdac494	-0.006676266
13	0xbc282e30	-0.010264918
14	0xbbf65bf1	-0.0075182845
15	0xbbd05d3b	-0.00635877
16	0x3dd848b5	0.10560743
17	0xbc4c850b	-0.012482892
18	0xbb4bb7aa	-0.0031084814
19	0xbd0458ff	-0.032311436
20	0xbcf2bbdb	-0.029630592
21	0xbc416592	-0.011804001
22	0xbc349d52	-0.011023836
23	0xbc3e6a85	-0.011622076
24	0x3cb0a19d	0.021561438
25	0x3e165b49	0.1468326
26	0x3d8451de	0.064609274
27	0xbd089344	-0.03334357
28	0xbd42223d	-0.047395933
29	0xbd304f6e	-0.0430445
30	0x3e0ac427	0.13551389
31	0xbde67277	-0.11252301
32	0xbd155cf6	-0.036465608
33	0xbc16781e	-0.009183912
34	0x3dc9a90d	0.09846697
35	0x3d0a7075	0.033798654
36	0x3d5b5897	0.053551283
37	0xbd575515	-0.052571375
38	0xbd735a2e	-0.059412174
39	0x3d612b4f	0.054972943
40	0xbd98a8e0	-0.07454085
41	0x3d091254	0.033464745
42	0xbc1e7506	-0.009671455
43	0xbc8c9d09	-0.017164724
44	0xbdf471c0	-0.119357586
45	0x3ddd3b1e	0.10802291
46	0xbc36adfc	-0.01114988
47	0xbc29fcd0	-0.010375217
48	0x3d0a4f07	0.033766773
49	0xbc508443	-0.012726846
50	0x3d805ffa	0.06268306
51	0xbbf5a795	-0.007496784
52	0x3c56534b	0.013081382
53	0x3d024fe6	0.03181448
54	0xbd069e67	-0.032865908
55	0x3c753dfa	0.01496839
56	0x3ad546a5	0.0016271664
57	0x3d577841	0.052604917
58	0x3b7ba6d6	0.0038399003
59	0xbd6f1397	-0.05836829
60	0xbd4891f0	-0.0489673
61	0xbbbb1110	-0.005708821
62	0x3cddca33	0.027073955
63	0xbc72b4b8	-0.0148135945

sequential_2/conv2d_1/Conv2D f4 [64, 3, 3, 32]
0	0x3ddba9c8	0.107257426
1	0xbc74200f	-0.0149002215
2	0x3d1f56c8	0.03890112
3	0x3de0043f	0.1093831
4	0x3d1c86b9	0.03821442
5	0x3d7a5ad0	0.06112176
6	0xbb3a14bb	-0.0028393704
7	0xbd21f823	-0.039543282
8	0x3e1f72e2	0.15571168
9	0xbce66354	-0.028123535
10	0xbccccae1	-0.024999084
11	0x37f8b0d5	2.9646248e-05
12	0x3c480de5	0.012210344
13	0x3de56a02	0.1120186
14	0x3cc34c1c	0.023840003
15	0x3df18a0c	0.117939085
16	0x3d98b5be	0.074565396
17	0x3dd2ac37	0.102867536
18	0xb695180a	-4.4433446e-06
19	0x3d8ea552	0.06965126
20	0xbbf8433b	-0.007576374
21	0xbc8530a1	-0.01625854
22	0x3deff6a3	0.11716964
23	0xbcba26e4	-0.022723623
24	0xbde7da7f	-0.11320972
25	0xbd4aa649	-0.049474988
26	0x3d39726c	0.045275137
27	0x3da877bb	0.08225962
28	0x3da85ea9	0.0822118
29	0xbdbb274b	-0.09138354
30	0x3c663830	0.014051482
31	0x3af0f682	0.0018384012
32	0x3dd5707c	0.10421845
33	0xbde5fc2b	-0.11229738
34	0x3b98b753	0.004660526
35	0x3c5cd1c7	0.013477749
36	0x3c1cf7f0	0.009580597
37	0x3d8c6ebb	0.06857058
38	0x3c2fcecb	0.010730456
39	0xbe41bd3e	-0.18919846
40	0x3e44b511	0.19209696
41	0xbd6758f5	-0.05648132
42	0xbd9ded80	-0.07711315
43	0x3de32265	0.110905446
44	0xbd9fcd67	-0.07802849
45	0x3c9ae46a	0.018907744
46	0x3d95470b	0.07288941
47	0x3ddc3e31	0.107540496
48	0x3db34c3e	0.087547764
49	0x3da36bcf	0.07979547
50	0xbcf7815a	-0.030213047
51	0xbc22f2bf	-0.0099455705
52	0xbc3a2326	-0.011360919
53	0xbda7381b	-0.08164998
54	0x3ceec502	0.029146675
55	0xbdad4bbb	-0.0846171
56	0xbd4cbf8b	-0.049987357
57	0xbd57f3e1	-0.052722815
58	0x3d47fa87	0.048822906
59	0x3d0aad6d	0.033856798
60	0xbd51fcd2	-0.0512665
61	0x3d2984ad	0.041386295
62	0xbde7f5e6	-0.11326198
63	0xbe08d92a	-0.13364092
64	0x3d525ea2	0.05135978
65	0xbe0e74d4	-0.13911754
66	0xbaa7769d	-0.0012776438
67	0xbdc2d838	-0.09513897
68	0xbda40dd8	-0.08010453
69	0x3cb27d59	0.021788286
70	0xbc4800f1	-0.012207256
71	0xbe10f447	-0.14155684
72	0x3d6eda80	0.058313847
73	0xbd877a0a	-0.06615074
74	0x3c7ae4f1	0.015313373
75	0xbd18cebb	-0.03730653
76	0x3d413725	0.04717173
77	0x3d4c4e5c	0.049879417
78	0xbd812ebe	-0.063077435
79	0x3db9722f	0.09054982
80	0x3de70f70	0.11282241
81	0x3dab1381	0.083533294
82	0x3d418a23	0.047250878
83	0xbd625270	-0.0552544
84	0x3cfd7114	0.030937709
85	0x3c7a322e	0.015270753
86	0x3d8868ac	0.066605896
87	0xbcdc8783	-0.026920086
88	0x3da7b634	0.08189049
89	0xbd891d0e	-0.06694995
90	0xbce5f317	-0.028070016
91	0xbd67277f	-0.05643415
92	0xbd972726	-0.07380514
93	0x3cb20af0	0.021733731
94	0xbdda1fb2	-0.10650577
95	0x3c61a27c	0.013771649
96	0x3e05aeea	0.13055006
97	0xbe002ed7	-0.12517868
98	0x3d431c3d	0.047634352
99	0x3d896790	0.06709206
100	0xbc835859	-0.016033338
101	0x3dd9162c	0.10599932
102	0xbd79b2b3	-0.060961436
103	0x3c0d7191	0.008633033
104	0xbbd44310	-0.006477721
105	0xbd2dfa92	-0.04247529
106	0xbd825422	-0.06363703
107	0x3d4ed8e5	0.050499815
108	0xbdf5317f	-0.11972331
109	0x3ce8a9a7	0.028401209
110	0x3d12028d	0.035646964
111	0x3d3092c1	0.043108705
112	0x3d734cc8	0.059399396
113	0x3d97d23f	0.07413148
114	0x3d5aa7ba	0.053382613
115	0xbcb8b771	-0.02254841
116	0xbd6ae8e0	-0.057350993
117	0xbdfb0563	-0.12256887
118	0x3d66a064	0.056305304
119	0xbdb28a68	-0.08717805
120	0xbd54208a	-0.051788844
121	0xbdd503f9	-0.10401148
122	0xbcd01db2	-0.025404785
123	0x3d0da9e3	0.034585845
124	0xbd3ea9a8	-0.046548516
125	0xbd1f4ae8	-0.038889796
126	0xbded8ced	-0.11599145
127	0xbd081300	-0.033221245
128	0x3e04d630	0.12972331
129	0xbe051fdd	-0.13000436
130	0xbdd07ba5	-0.10179833
131	0xbd362243	-0.04446627
132	0xbc1b8ced	-0.009494049
133	0x3df081eb	0.1174353
134	0xbde236bc	-0.11045596
135	0xbce0ebcd	-0.027456189
136	0x3e0d68fe	0.13809583
137	0xbdef9f0b	-0.11700257
138	0xbc0ea201	-0.008705617
139	0xbcade91d	-0.021229321
140	0xbca6171c	-0.020274691
141	0x3dd047a6	0.10169916
142	0xbc987fad	-0.018615568
143	0xbd043b97	-0.03228339
144	0x3ae240f9	0.0017261795
145	0x3c5706f2	0.0131242145
146	0xbd97c287	-0.0741015
147	0xbd675d23	-0.056485306
148	0x3da7e3e5	0.08197764
149	0x3c3b2a3a	0.011423642
150	0x3dc3ea49	0.09566171
151	0xbb3d198b	-0.0028854336
152	0xbd2e5df7	-0.04257008
153	0xbddc5860	-0.10759044
154	0x3dcf460b	0.101207815
155	0xbd04044d	-0.032230664
156	0xbc81416a	-0.015778262
157	0xbd670827	-0.05640426
158	0xbe154ee1	-0.14580871
159	0xbd6476c4	-0.055777326
160	0x3dbefb92	0.09325327
161	0xbd94fce6	-0.07274799
162	0xbdf0fbcd	-0.11766777
163	0xbc913b3c	-0.01772844
164	0x3d66d1a9	0.05635229
165	0x3dea58e9	0.114427395
166	0xbe03d233	-0.12873153
167	0xbdc524f4	-0.09626189
168	0x3daaa3a7	0.083319955
169	0xbd8c93e5	-0.06864146
170	0x3da6fdc7	0.08153873
171	0x3d8286a7	0.06373339
172	0x3cb9c010	0.02267459
173	0xbc3d3c2a	-0.011549989
174	0xbd0e0f56	-0.034682594
175	0xbb0372b9	-0.0020057394
176	0x3dea893e	0.11451958
177	0x3d10032a	0.035159267
178	0x3bae154d	0.005312598
179	0x3daee86d	0.085404254
180	0x3d6da041	0.05801416
181	0xbddc24f9	-0.107492395
182	0x3dc7471b	0.09730359
183	0x3d95a3d7	0.073066406
184	0x3cc5c253	0.024140513
185	0xbdda2a5c	-0.10652611
186	0xbc01cb0d	-0.007921946
187	0x3d7470d1	0.059677903
188	0x3b00635f	0.001959048
189	0xbd5aacbe	-0.053387396
190	0xbe0426e0	-0.12905455
191	0x3c273102	0.0102045555
192	0x3db5ce81	0.08877278
193	0xbd9c7aac	-0.07640585
194	0x3d548bb6	0.05189105
195	0x3d83bd15	0.06432549
196	0xbdf22ef1	-0.118253596
197	0x3dccd1cb	0.10000952
198	0xbdb056ef	-0.08610331
199	0x3ca4f307	0.020135416
200	0x3bb81488	0.005617682
201	0xbe0ec9c2	-0.13944152
202	0xbcbb67ab	-0.022876581
203	0xbd0dadd9	-0.034589622
204	0xbd137121	-0.03599656
205	0x3d46dae6	0.0485486
206	0xbb3af34b	-0.0028526362
207	0x3dcd3f5d	0.10021851
208	0x3d8a519c	0.06753847
209	0x3dea5620	0.11442208
210	0xbd42b08b	-0.047531646
211	0x3d70bc6e	0.05877345
212	0xbd75719f	-0.05992281
213	0xbd98c903	-0.07460215
214	0x3d24f517	0.0402728
215	0x3d8431e9	0.06454832
216	0xbd77a839	-0.060463164
217	0xbda34b65	-0.07973365
218	0xbd9ace02	-0.07558824
219	0xbd0a2bd9	-0.033733223
220	0xbd3508d2	-0.044197865
221	0x3da0ddf7	0.078548364
222	0xbd0b210c	-0.033967063
223	0xbd8f4712	-0.069959775
224	0x3da5a2e0	0.080877066
225	0xbe11c250	-0.1423428
226	0x3d4f381b	0.050590616
227	0xbdbfde46	-0.09368567
228	0x3d2be55d	0.041966785
229	0x3d81380b	0.063095175
230	0xbd895dec	-0.06707367
231	0xbc618060	-0.013763517
232	0x3c4da804	0.012552265
233	0xbdcd5dea	-0.10027678
234	0xbd8bd736	-0.068281576
235	0x3cefbddb	0.029265335
236	0x3d1bb938	0.038018435
237	0x3d4326c3	0.047644388
238	0x3da7506c	0.08169636
239	0x3db7586c	0.08952412
240	0x3cded905	0.027203092
241	0x3cb3bfbf	0.021942018
242	0xbc9f862b	-0.019473156
243	0xbdd1e196	-0.10248105
244	0x3d4db6c4	0.050223127
245	0xbc04e044	-0.00811011
246	0x3c84e778	0.016223654
247	0x3daee20c	0.08539209
248	0x3d22a739	0.039710257
249	0xbd20f1f8	-0.03929326
250	0xbda6bcf8	-0.08141512
251	0x3c88b3a9	0.016687231
252	0xbd4a4054	-0.049377754
253	0xbcf0b046	-0.029380929
254	0xbe156e16	-0.14592776
255	0xbd51d7e3	-0.051231276

sequential_2/conv2d_2/Conv2D f4 [64, 3, 3, 64]
0	0xbe2f7d09	-0.17137541
1	0xbc0c25d3	-0.00855394
2	0x3b223710	0.0024752058
3	0x3c11632a	0.00887374
4	0xbd9aeecc	-0.07565078
5	0x3c904cc8	0.017614737
6	0xbda044fe	-0.07825659
7	0xbde6b2f1	-0.11264599
8	0x3bf4189d	0.007449223
9	0xbd17d937	-0.037072387
10	0x3d6db2f8	0.058032006
11	0xbd39cfc4	-0.045364156
12	0x3d56a2d9	0.052401397
13	0x3d271001	0.040786747
14	0xbdb2e9a5	-0.087359704
15	0xbd4fede3	-0.050763976
16	0xbd9e92f6	-0.07742874
17	0xbd5f003a	-0.054443575
18	0x3c58de65	0.013236617
19	0xbcc368f8	-0.023853764
20	0x3cff81fb	0.03118991
21	0xbccd8299	-0.025086688
22	0xbd9fe598	-0.078074634
23	0xbd810601	-0.06299973
24	0x3d498cab	0.049206417
25	0x3df6f12b	0.12057718
26	0xbd84653f	-0.06464624
27	0xbe0be873	-0.13662891
28	0xbdaafedb	-0.08349391
29	0xbd772265	-0.060335536
30	0xbd57875b	-0.05261932
31	0xbcf7fcc0	-0.030271888
32	0xbe2dd008	-0.16973889
33	0xbd80cdd5	-0.06289259
34	0xbe364f7b	-0.17803757
35	0xbd8645bc	-0.065562695
36	0xbd5daef7	-0.054121938
37	0xbe0a183c	-0.13485807
38	0xbd6c26b9	-0.057654116
39	0xbe6677a7	-0.22506581
40	0xbd26aac7	-0.04069021
41	0x3cabcb39	0.020970928
42	0xbcb09ca5	-0.021559069
43	0xbcd263b1	-0.025682302
44	0x3d49e947	0.049294736
45	0x3dd49a7b	0.10381027
46	0x3bd127d3	0.0063829212
47	0xbd1b0439	-0.037845824
48	0xbc7f4f54	-0.015582878
49	0xbdd81240	-0.10550356
50	0xbdfad3ef	-0.122474544
51	0x3daf74c8	0.08567196
52	0xbdd29cb9	-0.10283799
53	0x3d83eda4	0.06441811
54	0xbca6b5b1	-0.02035031
55	0x3c0b96ff	0.008519887
56	0xbe1ce969	-0.15323414
57	0x3dd0b7ec	0.1019133
58	0xbd5a37e6	-0.053275965
59	0xbe230a6d	-0.15921946
60	0xbda2df63	-0.07952764
61	0xbdebfc48	-0.11522728
62	0xbe204a71	-0.15653397
63	0x3c5bdaf4	0.013418902
64	0xbda39e9c	-0.07989237
65	0x3ca54a35	0.020176986
66	0xbd34908f	-0.044083174
67	0x3c4c60ac	0.01247422
68	0x3d68dddd	0.05685221
69	0xbe4f1359	-0.20222224
70	0xbdf7a20a	-0.120914534
71	0x3cefaa85	0.029256115
72	0xbce28625	-0.027651856
73	0xbdbd49bd	-0.0924258
74	0x3cd26196	0.025681298
75	0xbdbcef67	-0.0922535
76	0x3d922633	0.07136192
77	0xbdf943c8	-0.12171131
78	0x390984ca	0.00013114806
79	0xbd39784c	-0.04528074
80	0xbe014dd3	-0.12627344
81	0xbd1f556d	-0.038899828
82	0x3bc32d15	0.005956302
83	0xbe513d8d	-0.20433636
84	0x3ddb5915	0.107103504
85	0xbdf26816	-0.11836259
86	0xbe326a3f	-0.17423342
87	0xbe23947e	-0.15974614
88	0xbe289987	-0.16464816
89	0x3cb32eca	0.021872897
90	0xbd1c35dc	-0.0381373
91	0xbdd936e1	-0.106061704
92	0xbe48749e	-0.19575736
93	0xbd4be72c	-0.04978101
94	0xbc881481	-0.01661134
95	0xbd775341	-0.06038213
96	0xbe503852	-0.20333984
97	0xbe0e5407	-0.13899241
98	0xbd0274f0	-0.0318498
99	0xbe045547	-0.12923156
100	0xbdb0c498	-0.08631247
101	0xbd258c73	-0.040417146
102	0x3d0fea5a	0.035135604
103	0x3c0b400b	0.008499156
104	0xbe337f60	-0.17529058
105	0xbe015239	-0.12629022
106	0x3db62ffe	0.088958725
107	0xbd9bf6a1	-0.076154
108	0xbe162f5b	-0.14666502
109	0xbbc7d21f	-0.0060980464
110	0xbd6ff77b	-0.058585625
111	0xbc6b2653	-0.014352399
112	0xbc7d21ab	-0.015449922
113	0xbdcb72c3	-0.099339984
114	0xbe2d1658	-0.16903055
115	0x3cbb5f59	0.022872614
116	0xbd8a9032	-0.06765784
117	0xbd9c0893	-0.07618823
118	0xbd8396a5	-0.064252175
119	0xbdd0b754	-0.10191217
120	0xbda5db66	-0.080984876
121	0xbd5c9440	-0.05385232
122	0xbe546c03	-0.20744328
123	0xbe1a4c94	-0.15068275
124	0xbe5a6082	-0.21325877
125	0xbe66ee43	-0.22551827
126	0xbe17e3bc	-0.14832968
127	0xbd6abee7	-0.057310965
128	0xbd8023db	-0.06256839
129	0x3d0cd8a9	0.03438631
130	0xbdd8a819	-0.10578937
131	0xbb2c386d	-0.002627875
132	0x3c7ad836	0.015310338
133	0x3dc51870	0.09623802
134	0xbe1a29f3	-0.15055065
135	0x3e27d8c4	0.16391283
136	0x3dbfd0d7	0.09366005
137	0x3d8fa683	0.070141815
138	0x3d8a38b0	0.067490935
139	0xbdf5194d	-0.11967716
140	0x3dcc18c2	0.0996566
141	0xbd0949f7	-0.033517804
142	0x3d5e9494	0.054340914
143	0x3d9f54d7	0.07779854
144	0xbe54a128	-0.20764601
145	0x3d39b42c	0.04533784
146	0xbd12480e	-0.035713248
147	0x3e310f78	0.17291057
148	0x3def9412	0.11698164
149	0xbde4bf12	-0.11169256
150	0x3c8e42f5	0.017365912
151	0xbbcf7f0b	-0.0063322834
152	0x3e01e24e	0.12683985
153	0x3d598d5c	0.053113326
154	0xbd19f6cf	-0.03758889
155	0xbe866e6f	-0.2625613
156	0xbe3f2583	-0.18666653
157	0xbd72d326	-0.059283398
158	0xbca5ea46	-0.020253312
159	0x3e51ff86	0.2050763
160	0x3d6460c6	0.055756353
161	0x3dd5b238	0.10434383
162	0x3e83b6ca	0.25725394
163	0xbd397b3e	-0.04528355
164	0x3e4e3d80	0.20140648
165	0x3ca063e3	0.01957888
166	0x3d889568	0.06669122
167	0x3dfa9937	0.12236255
168	0xbda5c63e	-0.08094452
169	0x3e1f0e07	0.15532695
170	0xbd8ac02b	-0.067749344
171	0xbc38f96c	-0.011289936
172	0x3e3cc6f1	0.18435265
173	0x3c0c6054	0.008567888
174	0x3d72c7a4	0.059272423
175	0x3d845edc	0.064634055
176	0x3db72d8c	0.08944234
177	0x3dcb709b	0.09933587
178	0xbe3cea6a	-0.18448797
179	0x3e3fc0fe	0.18725964
180	0xbe25fb87	-0.16209231
181	0xbc8d82a3	-0.017274207
182	0xbc20aa5e	-0.009806244
183	0x3d64a5c7	0.05582216
184	0x3dde3fcb	0.10852011
185	0x3e21630a	0.15760437
186	0x3de86f6b	0.11349376
187	0x3e0e929b	0.13923113
188	0x3a17276e	0.00057660684
189	0x3da410a8	0.080109894
190	0x3dbad73d	0.09123085
191	0x3e35834e	0.1772587
192	0xbd8e65f2	-0.06953038
193	0xbd8432ba	-0.06454988
194	0xbd62ea6a	-0.055399336
195	0x3d935020	0.07193017
196	0xbd8b957c	-0.06815621
197	0xbc10d352	-0.008839445
198	0xbd292efc	-0.041304573
199	0xbde0e69c	-0.10981485
200	0x3dcfb786	0.10142426
201	0xbc55252f	-0.013009354
202	0x3c82927f	0.015938995
203	0xbd5720a6	-0.05252137
204	0x3d584447	0.05279949
205	0xbdaccfe0	-0.084380865
206	0x3cc391e2	0.023873273
207	0xbd5d6b10	-0.05405718
208	0xbde50fc4	-0.11184648
209	0xbb035f42	-0.0020045792
210	0xbd3fe08a	-0.046844997
211	0xbd3fc84e	-0.046821885
212	0x3d4d469e	0.050116174
213	0xbdeace7e	-0.114651665
214	0xbd80fcba	-0.06298204
215	0xbe1933e9	-0.14961208
216	0xbd882a3c	-0.066486806
217	0x3c16244f	0.00916393
218	0xbdb4d282	-0.08829214
219	0xbc031bfb	-0.0080022765
220	0xbd871372	-0.06595506
221	0xbd011046	-0.03150966
222	0x3d8536fc	0.06504628
223	0xbd970cec	-0.073755115
224	0xbe09a88d	-0.13443203
225	0x3cefea00	0.029286385
226	0xbe7d792b	-0.24753253
227	0x3cc746fb	0.024325838
228	0xbd83472d	-0.0641006
229	0x3cc186ed	0.023623908
230	0xbd0a4b99	-0.0337635
231	0xbe2a7120	-0.16644716
232	0xbe03896d	-0.12845393
233	0xbdc1158e	-0.09427939
234	0xbc0cce82	-0.008594157
235	0x3b784724	0.00378842
236	0x3cfdcc7b	0.030981293
237	0x3dd0004f	0.10156309
238	0xbd1bf909	-0.038079295
239	0x3bf94e04	0.007608177
240	0x3da0499b	0.07826539
241	0xbe14c2a6	-0.14527377
242	0x3db0f0e3	0.086396955
243	0xbc034e76	-0.008014312
244	0xbce657fa	-0.028118122
245	0x3c862e7c	0.016379587
246	0x3c248d13	0.0100434
247	0xbd6cc466	-0.057804488
248	0xbe177f25	-0.14794596
249	0x3c6e5dbe	0.014548717
250	0xbd3854b8	-0.04500267
251	0xbe2a3509	-0.16621794
252	0xbde6e13a	-0.11273427
253	0xbbc47e60	-0.0059965104
254	0xbdcf6ed3	-0.1012856
255	0xbcccd438	-0.025003538

sequential_2/conv2d_3/Conv2D f4 [64, 3, 3, 64]
0	0xbdc1536a	-0.09439738
1	0xbcaba17a	-0.020951021
2	0x3cae2f88	0.021262899
3	0x3d0cf742	0.03441549
4	0x3d739641	0.059469465
5	0x3d7af7f0	0.061271608
6	0xbcee106b	-0.029060563
7	0x3d6bdfa1	0.057586316
8	0xbd9af11b	-0.075655185
9	0xbd557c67	-0.052120592
10	0xbd42cc5a	-0.047558166
11	0x3d672f51	0.05644161
12	0x3c69392a	0.01423482
13	0xbcd24e1a	-0.025672007
14	0xbd1d0b56	-0.03834089
15	0x3c776f7d	0.0151022645
16	0x3d8b5758	0.06803769
17	0xbd9b27ef	-0.07575976
18	0xbddf2049	-0.1089483
19	0xbc1d9497	-0.009617946
20	0xbc71a37b	-0.014748449
21	0xbd03e1e7	-0.03219786
22	0xbd2c4435	-0.042057235
23	0xbd74c29e	-0.059755914
24	0xbe03a4c4	-0.12855822
25	0xbd339ad7	-0.04384884
26	0x3d6ab196	0.057298265
27	0xbb5413e9	-0.00323605
28	0x3c9e30e1	0.019310417
29	0x3d24336f	0.040088113
30	0x3c558dcd	0.013034296
31	0xb8be1790	-9.064295e-05
32	0xbe0202b1	-0.12696339
33	0xbd2fcb04	-0.04291822
34	0xbcfb6162	-0.030686084
35	0xbd77de10	-0.06051451
36	0xbdcdabf5	-0.10042564
37	0xbd9713d2	-0.07376827
38	0x3c16ec6e	0.009211643
39	0xbd101e18	-0.03518495
40	0xbd857043	-0.06515553
41	0xbd9a886e	-0.07545553
42	0xbdc37982	-0.0954466
43	0x3d96692d	0.073442794
44	0xbdb00968	-0.08595544
45	0xbcc0e15a	-0.023544956
46	0xbc29b8c4	-0.010358993
47	0xbcadb779	-0.02120565
48	0x3b819110	0.0039540604
49	0xbd78a4fe	-0.060704224
50	0x3b968311	0.004593261
51	0xbdde2bee	-0.10848223
52	0x3abbbd94	0.0014323466
53	0xbd3ea59d	-0.04654466
54	0xbd0640e2	-0.03277672
55	0xbc061202	-0.008183004
56	0xbd941a24	-0.072315484
57	0x3d3a9cb2	0.045559593
58	0xbd4a4a1c	-0.049387082
59	0x3c6da7cf	0.014505341
60	0xbd1a0eb2	-0.03761167
61	0xbd9879ff	-0.07445144
62	0x3c50bd17	0.012740395
63	0xbd8dc783	-0.069228195
64	0xbcbf0bf7	-0.023321135
65	0xbd3b8624	-0.045782223
66	0xbd72c46f	-0.059269365
67	0xbd227c46	-0.039669298
68	0xbd6d6e5b	-0.05796657
69	0x3d35e84f	0.044411
70	0xbd44c7e2	-0.048042186
71	0x3c9c6d47	0.019095076
72	0xbc89eecc	-0.0168375
73	0xbd388788	-0.045051128
74	0xbc8fd254	-0.017556347
75	0xbc0286d6	-0.007966718
76	0x3d4210ae	0.04737919
77	0x3ccae01d	0.024765069
78	0xbd25bfc8	-0.0404661
79	0x3d2df6c6	0.04247167
80	0xbd7e8136	-0.062134944
81	0xbc9f816e	-0.019470897
82	0xbde4f115	-0.11178795
83	0x3d29d6e1	0.04146469
84	0x3be4aa0f	0.0069782804
85	0xbcecbcea	-0.028898675
86	0xbd83be97	-0.064328365
87	0xbd97a0e6	-0.07403736
88	0xbce9a282	-0.028519873
89	0x3d524392	0.05133397
90	0xbcb4aa2f	-0.022053806
91	0x3d4402ed	0.047854353
92	0xbe05b891	-0.13058688
93	0xbc251434	-0.010075618
94	0x3c249070	0.010044202
95	0xbaf8288b	-0.0018932981
96	0xbd887263	-0.066624425
97	0x3c84af74	0.016196944
98	0xbc41be88	-0.011825211
99	0xbdbceb9c	-0.092246264
100	0xbdc9d2de	-0.09854673
101	0xbdd4f038	-0.103973806
102	0xbcb14016	-0.021637004
103	0x3c11e057	0.008903584
104	0xbd47c39d	-0.048770536
105	0xbd476907	-0.048684146
106	0xbdc722db	-0.09723445
107	0x3d0a1eaa	0.03372065
108	0xbaa1be64	-0.0012340066
109	0xbc2ec234	-0.010666419
110	0xbd0330e6	-0.032029055
111	0xbcdbaa2d	-0.026814545
112	0x3d62dc7d	0.055386055
113	0xbb6f713a	-0.0036535994
114	0xbcd37790	-0.025813848
115	0xbd867c5d	-0.06566689
116	0x3cf417bf	0.02979648
117	0x3c8c5f2d	0.017135227
118	0x3d3f5c11	0.04671866
119	0xbdc9a3f0	-0.09845722
120	0xbda9a314	-0.08283058
121	0xbd1a777c	-0.037711605
122	0xbc4e1e21	-0.0125804255
123	0xbd805e95	-0.0626804
124	0xbd51d5ab	-0.05122916
125	0x3c857c4b	0.016294619
126	0x3b9786a1	0.0046242033
127	0xbc9abd73	-0.018889165
128	0xbd2cff59	-0.042235706
129	0xbd63d918	-0.05562696
130	0x398623d5	0.0002558517
131	0x3b36acb7	0.0027873942
132	0xbd790aae	-0.0608012
133	0x3d3964e9	0.04526225
134	0x3b936c4b	0.0044989935
135	0x3d66def2	0.05636496
136	0xbd084b21	-0.033274774
137	0xbd8dfe87	-0.06933313
138	0xbc8b81f1	-0.017029734
139	0x3d59570b	0.053061526
140	0x3d37f4b1	0.04491109
141	0xbd18af70	-0.037276685
142	0xbcb770cd	-0.022392655
143	0x3ca60215	0.020264665
144	0x3cf1e9bd	0.0295304
145	0xbd445ce5	-0.047940154
146	0xbd1ffc2d	-0.039058853
147	0xbdfbe004	-0.12298587
148	0x3b8216eb	0.003970017
149	0xbde107f8	-0.10987848
150	0xbd032f08	-0.032027274
151	0xbd424e6a	-0.047438063
152	0xbd95d8c8	-0.07316738
153	0xbc2c1882	-0.01050389
154	0xbc74a88e	-0.014932765
155	0x3cc9aaba	0.024617542
156	0xbcf98733	-0.030459976
157	0x3d6c6a7c	0.05771874
158	0xbd087eb9	-0.033323977
159	0x3cb08df1	0.021552058
160	0xbdd137e1	-0.10215736
161	0x3bfdd82b	0.0077467165
162	0xbd9d79ac	-0.07689223
163	0xbdc22763	-0.09480169
164	0xbd95e146	-0.07318358
165	0xbdb59050	-0.08865416
166	0xbcc7d4fc	-0.024393551
167	0x3b66a82a	0.0035195448
168	0xbcb027fc	-0.021503441
169	0xbdb4a441	-0.088203914
170	0xbd8a13cd	-0.06742058
171	0xbc6d9e85	-0.014503126
172	0xbda2f51a	-0.07956906
173	0x3c6e8234	0.01455741
174	0xbd378f6d	-0.044814516
175	0x3c452d81	0.012034775
176	0xbcb69597	-0.022288127
177	0xbdc2c889	-0.09510905
178	0x3a57ca5e	0.0008231754
179	0xbd1ff91d	-0.039055932
180	0xbd93cae8	-0.07216436
181	0xbc9e087f	-0.01929116
182	0x3d8082b7	0.06274932
183	0x3c4c692e	0.012476249
184	0xbd83ea69	-0.064411946
185	0x3abf5ead	0.0014600359
186	0xbcbcd094	-0.023048677
187	0x3cb65b7a	0.022260416
188	0xbd22069f	-0.039557096
189	0xbddd6814	-0.10810867
190	0xbcce2dd9	-0.025168346
191	0xbde4407f	-0.11145114
192	0xbd97452e	-0.07386242
193	0xbc71c022	-0.014755281
194	0x3c8696ef	0.016429393
195	0xbb989d1b	-0.0046574003
196	0xbd338416	-0.04382714
197	0xbd5b2d3a	-0.05350993
198	0xbd790b5b	-0.060801845
199	0xb9073c4c	-0.00012897066
200	0x3cecb4fd	0.028894896
201	0x3c536ff0	0.012905106
202	0xbd49481e	-0.049141042
203	0x3d2c4a25	0.042062897
204	0xbc01f22c	-0.007931273
205	0x3ce1f7ea	0.027584035
206	0x3db4c341	0.08826304
207	0xbd6f2fcc	-0.058395192
208	0xbd2148dc	-0.039376125
209	0x3c2a5209	0.010395535
210	0xbdb78cb4	-0.08962384
211	0x3da168f6	0.07881348
212	0x3c2748f9	0.010210269
213	0xbd001c30	-0.03127688
214	0xbd87988e	-0.06620894
215	0x3cac7681	0.0210526
216	0xbc762d5e	-0.015025465
217	0xbb95942a	-0.0045647817
218	0x3d158950	0.036507905
219	0xbc85c68d	-0.016330028
220	0xbc07fb18	-0.0082996115
221	0x3d792fa3	0.060836446
222	0xbdbbc3c9	-0.091682024
223	0x3d5462b4	0.051851943
224	0xbdd4a5aa	-0.103831604
225	0xbdc455b8	-0.09586662
226	0xbb4027d3	-0.0029320612
227	0xbe03c2a0	-0.12867212
228	0xbba58a65	-0.0050518983
229	0xbb4b8573	-0.0031054884
230	0xbd4824f6	-0.048863374
231	0x3bd2b26e	0.006429962
232	0xbd77d427	-0.06050506
233	0xbd62c744	-0.055365816
234	0xbd93f141	-0.0722375
235	0x3cb65f85	0.022262344
236	0xbd6985b3	-0.05701227
237	0xbc93b788	-0.01803185
238	0xbcbf0904	-0.023319729
239	0x3c290d83	0.010318163
240	0xbd83b160	-0.06430316
241	0xbd46e3fa	-0.04855726
242	0xbcfd82a5	-0.030946085
243	0xbd2c55ce	-0.042074017
244	0x3bde8a4d	0.006791389
245	0xbd1fda3a	-0.039026476
246	0x3d6fd4a7	0.05855241
247	0xbdd4dcf0	-0.10393703
248	0x3c216f11	0.00985314
249	0x3d8084f3	0.06275358
250	0x3c4878fa	0.012235874
251	0xbc67777d	-0.014127609
252	0xbd431eb9	-0.04763672
253	0xbdc2f011	-0.09518445
254	0xbd8b3aa5	-0.06798295
255	0xbdb9db80	-0.090750694

sequential_2/conv2d_4/Conv2D f4 [64, 3, 3, 64]
0	0x3ce09632	0.027415369
1	0xbd442d15	-0.047894556
2	0x3d12c589	0.035832915
3	0x3e6ce35d	0.23133607
4	0x3d2db9d4	0.042413548
5	0xbcd266f0	-0.02568385
6	0x3d270a3a	0.040781237
7	0x3cf8a224	0.030350752
8	0x3c593d0c	0.013259184
9	0x3cb5c9fa	0.022191036
10	0x3db3c8a7	0.08778506
11	0xbd2cb1f6	-0.042161904
12	0xbe1503b7	-0.14552198
13	0xbded7eab	-0.115964256
14	0xbddcd016	-0.10781877
15	0x3de6f2b6	0.11276762
16	0x3d194291	0.037417
17	0xbe121ed8	-0.14269578
18	0xbd769792	-0.060203142
19	0xbcc52ae2	-0.0240683
20	0xbd97061a	-0.07374211
21	0x3e28c5d5	0.16481717
22	0x3e8213fc	0.25405872
23	0xbd5db849	-0.054130826
24	0xbd8655b7	-0.065593176
25	0x3e4749c4	0.19461733
26	0xbd0ef1b6	-0.034898482
27	0x3da29bf2	0.079399005
28	0x3d4092ae	0.047014885
29	0x3cdc49c4	0.026890643
30	0xbd5d0dd7	-0.053968277
31	0xbc03499d	-0.008013156
32	0x3c998fef	0.01874539
33	0x3d698295	0.0570093
34	0xbddf00eb	-0.10888847
35	0xbd45d571	-0.048299257
36	0xbd776b95	-0.060405333
37	0xbd58be5d	-0.05291592
38	0x3c43bc87	0.011946804
39	0x3d9cef02	0.076627746
40	0x3dc7c8f7	0.09755128
41	0x3d6dff45	0.058104772
42	0x3e4565f3	0.19277172
43	0xbe05f006	-0.13079843
44	0xbc58cd77	-0.01323258
45	0x3e3b95c9	0.18318857
46	0xbe06df84	-0.13171202
47	0xbe0a7189	-0.13519873
48	0xbdb883e3	-0.090095304
49	0xbb566cbd	-0.0032718622
50	0x3c402897	0.011728427
51	0x3d125e3f	0.03573441
52	0xbd7208dc	-0.05909048
53	0xbc30d8c4	-0.010793868
54	0x3d829936	0.06376879
55	0x3e081e9e	0.1329293
56	0x3c4374d8	0.011929713
57	0x3d190646	0.0373595
58	0xbce22bfd	-0.027608866
59	0xbd76fd8e	-0.060300402
60	0xbd9a216e	-0.075259075
61	0xbe0bd890	-0.13656831
62	0x3dc0894c	0.09401187
63	0xbd227d86	-0.03967049
64	0x3d3d4aee	0.046214037
65	0xbd0668c6	-0.032814763
66	0xbcb39455	-0.021921316
67	0x3df3c407	0.119026236
68	0xbcf1719d	-0.02947312
69	0x3c8876a1	0.01665813
70	0x3d3cf36d	0.046130586
71	0x3b945160	0.004526302
72	0x3d26081b	0.040535074
73	0xbbf68bd1	-0.0075239916
74	0x3d9f4520	0.077768564
75	0x3c3b9678	0.011449449
76	0xbdbe5575	-0.092936434
77	0xbe2e0fc0	-0.16998196
78	0x3c31ddd8	0.010856114
79	0x3dc28a30	0.094990134
80	0x3e08605c	0.13318008
81	0xbe33fcc9	-0.17576899
82	0xbcf443fc	-0.029817574
83	0xbd676a80	-0.05649805
84	0xbce9d40f	-0.0285435
85	0x3d9e8feb	0.07742294
86	0x3e623f5a	0.22094479
87	0xbd944e7f	-0.072415344
88	0xbda08917	-0.07838648
89	0x3e185592	0.14876392
90	0xbe6eb562	-0.2331138
91	0x3da12141	0.07867671
92	0x3e0899c3	0.13339905
93	0xbce303e2	-0.027711812
94	0xbb631f68	-0.003465617
95	0xbdb76ac6	-0.08955912
96	0x3c65d7bd	0.014028487
97	0x3d7672be	0.06016802
98	0xbda91113	-0.0825521
99	0xbd26cd8e	-0.040723376
100	0xbda7b958	-0.081896484
101	0xbd7b40b1	-0.06134099
102	0x3d03e91b	0.03220473
103	0x3e09af34	0.13445741
104	0x3dc32c92	0.095299855
105	0x3e39f924	0.18161446
106	0x3d588835	0.052864272
107	0xbdbc1a99	-0.091847606
108	0x3d229668	0.03969422
109	0x3e25e097	0.16198955
110	0xbddcec02	-0.107872024
111	0xbdad6ca7	-0.084679894
112	0xbe25367d	-0.16134067
113	0x3c9e65af	0.019335596
114	0x3d77ff51	0.060546223
115	0xbc02b16f	-0.007976874
116	0x3d29bb54	0.041438416
117	0xbc46ec25	-0.012141262
118	0x3e54ae18	0.20769536
119	0x3e60039f	0.21876381
120	0x3ccaf367	0.024774266
121	0xbb401c86	-0.0029313876
122	0xbd0ed947	-0.03487518
123	0xbb230be3	-0.0024878911
124	0xbd591b2e	-0.053004436
125	0xbe231471	-0.15925767
126	0x3dfce0d1	0.12347568
127	0x3d3b5f99	0.045745466
128	0xbd3355f4	-0.043783143
129	0xbde569af	-0.11201798
130	0xbd56ca16	-0.052438818
131	0x3e5dfb28	0.2167784
132	0xbb6ffc81	-0.003661901
133	0x39e7a4b3	0.00044182464
134	0xbd27db7a	-0.040980794
135	0x3ccab9db	0.024746826
136	0xbe4fdabb	-0.20298283
137	0x3ba276ea	0.0049580233
138	0x3e01ba0e	0.1266863
139	0xbd623be1	-0.055232886
140	0x3d5fce36	0.054640017
141	0xbdfc9832	-0.123337165
142	0xbc9d9378	-0.019235358
143	0x3de3f9d7	0.111316375
144	0x3df969f7	0.12178414
145	0xbd9b44dd	-0.07581494
146	0xbe1fae0d	-0.15593739
147	0x3d2ac019	0.041687105
148	0x3c908eb3	0.01764617
149	0x3dfcbd4d	0.12340794
150	0x3e0236a7	0.1271616
151	0xbd02c2e6	-0.03192415
152	0xbe1073ad	-0.14106627
153	0x3e1abd37	0.15111242
154	0xbdec5267	-0.115391545
155	0x3dd5066b	0.10401615
156	0x3cf5ee07	0.030020727
157	0x3ce24b0a	0.027623672
158	0xbcf9bb5b	-0.030484846
159	0x3cd4fd24	0.025999613
160	0xbd363994	-0.044488505
161	0x3c7caa01	0.015421391
162	0xbde471f5	-0.11154548
163	0xbcb7f225	-0.02245433
164	0xbcaa187f	-0.020763634
165	0xbe26d7a6	-0.16293201
166	0x3d33643b	0.04379676
167	0x3dcb7e5a	0.09936209
168	0x3ddd3014	0.10800186
169	0x3de3b8e9	0.11119253
170	0x3d847a20	0.06468606
171	0xbd6e3b38	-0.058161944
172	0xbbe681a3	-0.007034497
173	0x3e07fa5e	0.13279101
174	0xbd942670	-0.07233894
175	0xbdca842c	-0.09888491
176	0xbdf41251	-0.11917556
177	0x3c716664	0.0147338845
178	0xbd8acb4a	-0.067770556
179	0xbdfe2264	-0.12408903
180	0x3dbbf4e9	0.09177572
181	0x3db3f1d8	0.087863624
182	0x3e012bf2	0.1261442
183	0x3e453dcf	0.1926186
184	0xbc54ab3d	-0.0129802795
185	0x3cbebf33	0.02328453
186	0x3c80deaa	0.015731174
187	0xbd331018	-0.04371652
188	0xbdc71b2b	-0.09721979
189	0xbe2313a6	-0.15925464
190	0x3e3f72a0	0.1869607
191	0xbc90d6bd	-0.01768052
192	0x3db0fb4e	0.086416826
193	0xbdf88217	-0.12134188
194	0xbda8d59a	-0.08243866
195	0xbe01a145	-0.12659176
196	0xbe0d3015	-0.13787873
197	0xbe25eb94	-0.16203147
198	0x3ceff26d	0.029290402
199	0x3d2c8d02	0.042126663
200	0x3dab50d7	0.08365028
201	0xbdf25563	-0.118326925
202	0xbda217d7	-0.07914703
203	0x3e047ad1	0.12937476
204	0xbe445b1c	-0.1917538
205	0xbe1f557c	-0.15559953
206	0xbe2386bd	-0.15969367
207	0xbdb6d5b1	-0.08927477
208	0xbdafe1e4	-0.08588007
209	0xbd673b13	-0.056452822
210	0x3c23b449	0.009991714
211	0xbd5aafe9	-0.053390417
212	0x3c092316	0.008370182
213	0xbc4ff815	-0.012693425
214	0xbca6c431	-0.020357223
215	0xbd04c817	-0.032417383
216	0x3d03c65a	0.032171585
217	0xbd84ed08	-0.064905226
218	0x3e199bc6	0.15000829
219	0xbd7d9034	-0.0619051
220	0x3d8bf8d8	0.068345726
221	0xbd6a7474	-0.057239965
222	0xbce8f682	-0.028437857
223	0xbdb6df33	-0.089292906
224	0xbd634509	-0.05548576
225	0xbd16e7e4	-0.036842242
226	0xbe0c21b1	-0.13684727
227	0x3d89a4a4	0.06720856
228	0xbe01bc74	-0.12669545
229	0x3c7633cb	0.015026997
230	0xbba5d3a5	-0.0050606304
231	0xbdb56d99	-0.08858795
232	0x3dcee744	0.10102704
233	0xbc70d71c	-0.014699724
234	0xbc6a76e2	-0.01431057
235	0x3d4ac227	0.049501564
236	0x3d6e5726	0.05818858
237	0xbb80e559	-0.0039335904
238	0x3decfcab	0.1157163
239	0x3bbf359f	0.0058352496
240	0xbb0eb6cc	-0.0021776436
241	0xbc429650	-0.011876658
242	0xbdc357a7	-0.09538203
243	0x3e0c047e	0.13673589
244	0xbd9f04c4	-0.07764581
245	0xbd32035d	-0.04346024
246	0xbde5e407	-0.112251334
247	0xbe03ac24	-0.12858635
248	0x3d777ee3	0.060423743
249	0xbd899206	-0.06717305
250	0x3dadb241	0.08481265
251	0xbd29e964	-0.041482344
252	0xbda4664a	-0.080273226
253	0x3d4d132f	0.050067123
254	0xbc1a8909	-0.009432086
255	0x3b0f930b	0.0021907713
